cluster-trace-microservices-v2022/workload_prediction/outputs/models/best_model.pt (torch, 7733 bytes, 6 tensors)

linear_seasonal.weight f4 [1, 12]
0	0x3d646d60	0.05576837
1	0x3cc1da89	0.023663776
2	0xbd49ed7c	-0.04929875
3	0x3db41070	0.08792198
4	0xbdba01e3	-0.09082391
5	0x3d3f7a45	0.046747465
6	0xbdf3b226	-0.118992135
7	0x3d8d823d	0.069096066
8	0x3dd70502	0.10499002
9	0xbd453d19	-0.04815397
10	0xbcbc2234	-0.022965528
11	0x3e8c7275	0.27431074

linear_trend.weight f4 [1, 12]
0	0x3eb3ed8f	0.3514218
1	0x3da22095	0.07916371
2	0x3da4d023	0.080475114
3	0xbdad5834	-0.08464089
4	0xbe263646	-0.16231641
5	0x3eba7b5c	0.3642224
6	0xbde1a97d	-0.110186554
7	0xbd1aef9c	-0.037826166
8	0xbd9a7913	-0.07542624
9	0xbdcb1795	-0.09916607
10	0x3ea46737	0.32109997
11	0xbc99f76f	-0.018794743

exp_avg f4 [1, 12]
0	0x3ae86352	0.0017729795
1	0x3aaa65f3	0.0013000354
2	0x3a44524c	0.000748907
3	0x3a37ea2a	0.0007015789
4	0x3989e83a	0.00026303699
5	0x39a7df49	0.00032019083
6	0x36be298e	5.667279e-06
7	0x382637d2	3.962947e-05
8	0xb95a0104	-0.00020790478
9	0xba53ef53	-0.00080846733
10	0xbab26bb0	-0.0013612416
11	0xbaf9e3a9	-0.001906504

exp_avg_sq f4 [1, 12]
0	0x3594e24a	1.1092718e-06
1	0x35893415	1.0222453e-06
2	0x353df288	7.0760916e-07
3	0x35567a32	7.989903e-07
4	0x351f3bb2	5.9318984e-07
5	0x35138cfb	5.496692e-07
6	0x35073c9c	5.037962e-07
7	0x34ec5e18	4.4026888e-07
8	0x34f68c50	4.5923161e-07
9	0x35390eb8	6.893929e-07
10	0x3593d8be	1.1015434e-06
11	0x35c01c2c	1.4313314e-06

exp_avg f4 [1, 12]
0	0xbc0f9962	-0.008764597
1	0xbc13e7bb	-0.009027417
2	0xbc183614	-0.009290237
3	0xbc1c846d	-0.009553057
4	0xbc20d2c6	-0.009815877
5	0xbc25211f	-0.010078697
6	0xbc296f79	-0.010341519
7	0xbc2dbdd2	-0.010604339
8	0xbc320c2a	-0.010867158
9	0xbc365a84	-0.011129979
10	0xbc3aa8dc	-0.011392798
11	0xbc3ef738	-0.011655621

exp_avg_sq f4 [1, 12]
0	0x39b0fcba	0.00033757632
1	0x39b33306	0.00034179556
2	0x39b56fee	0.00034606404
3	0x39b7b37c	0.00035038206
4	0x39b9fdb4	0.00035474973
5	0x39bc4e94	0.000359167
6	0x39bea62b	0.0003636343
7	0x39c10458	0.00036815065
8	0x39c36933	0.00037271678
9	0x39c5d4b9	0.0003773326
10	0x39c846e6	0.00038199796
11	0x39cabfbf	0.00038671304
