cluster-trace-microservices-v2022/workload_prediction/outputs/models/best_model.pt (torch, 703669 bytes, 42 tensors)

lstm.weight_ih_l0 f4 [256, 2]
00000000: 93dc 453e 132b 843d 779c 3a3e 261c 333d
00000010: a211 7eba de59 d9bc 08d7 153d 7296 803d
00000020: ef3c c4bd cd9d dbbb d7c2 a53d b8d0 84bd
00000030: db26 8fbc 0211 c9bd 6d5f 743c dc22 af3d
00000040: 8016 ef3d a68a 0b3d dd53 b0bd 8111 663c
00000050: 431e 223c 30af ddbc 494c 823d 5279 a0bd
00000060: b46d 2a3e d069 9e3d 6f70 0dbd 69be ee3d
00000070: 0852 45bc dd1e 4abd a1d8 9c3c 7e8e 8c3d
00000080: 9916 bf3c 39a8 46bd c8b8 663c 0d26 b23d
00000090: f93e 02be 5351 93bd bee8 85bd 4770 113c
000000a0: 0df2 7d3d cfe5 613d a58f 403e 17f2 a43d
000000b0: 2c72 483e 1fb8 d13c aa04 23ba 61b3 f7bd
000000c0: 31da b1bc f38c bfbc 66c8 e53c 234f c8bd
000000d0: 0a73 e2bc 6950 593d 3cc5 a53d d71f 70bc
000000e0: ccf9 963d 8e2c ccbd 9d28 e43d bb94 833d
000000f0: f6c1 78bd ed90 afbd 0c1c 5ebd 89b0 8a3d
00000100: 6b34 1f3d ea38 913d e263 b33d 799e 24bc
00000110: 7596 743c 0fe0 5c3d 412f 1f3e 0ea8 0d3d
00000120: 5dc6 c63c 8344 5ebd 0894 773d 2d86 133e
00000130: f32b ae3d 92eb dc3d 77fe 8bbd 55f8 b23d
00000140: a8d9 863d 44cd ab3d ff1d 443e 31a8 693d
00000150: 2c31 dabc 68fb 4c3d 2702 c43d 4744 4ebd
00000160: 616c 333e 22f0 893d 8d65 333d 354a 773d
00000170: 9e6f 853d f1dc ca3c d763 113e 050b 12bd
00000180: 86f3 a63d a45b adbd 35b5 073e 2a45 a8bd
00000190: cc3e e43d 3a85 883d a3aa 433e ffd3 653c
000001a0: f300 a73b 5467 ac3d 0cd5 0cbd c8e7 b0bd
000001b0: 0fc0 5d3d 4984 8cbc 069b 47bd 9c82 c5b9
000001c0: 43ce 0bbd fa9b acbc 813b 32bd 7efb c0bd
000001d0: 4d65 af3c 96ee 93bd 959b 0e3d c221 3bbd
000001e0: a8ea 8abc e18b 85bc 4857 123e b425 f53d
000001f0: c04c f53d 2daa 1bbd d3a0 1c3e f626 c13d
00000200: 16ec 363e 39a5 823d 7324 e73c 7905 2fbb
00000210: a7aa 253e 7c34 133e 423a 0b3e 45db 1dbc
00000220: 1c52 d53c f7d4 0fbe 66b1 d93d 0995 303d
00000230: c94c 44bd b362 ddbd ce1f 19bc a46b cb3d
00000240: 191d 9a3c f3de ea3d 586e fb3c 647d a83d
00000250: bfc9 453e dd78 be3d 869f a5bd 3474 d5bd
00000260: b1b3 4cbc dd52 ae3d ecdd a23d 7515 c83d
00000270: 48b4 8abc d48c 0fbe c2dc 353e 2915 18bb
00000280: 7bd9 1abe 83a6 c5bd a2b5 463e 1fb5 eb3c
00000290: b146 f6bd c66d 9fbc 425e 063d d12f cd3d
000002a0: b270 ec3d 415e 033c 2ad0 1f3e 54c9 0f3c
000002b0: 31d2 0f3e 34ef 7a3d fce6 9dbd 8ee0 b6bd
000002c0: 7cce 733d b93a d8bd 9c19 0c3e 3a1c c23c
000002d0: f8db 493e ec61 18bd 0638 d93d 16f7 233d
000002e0: 28e2 e63d ebf7 3e3d 4eaf dc3d e575 92bc
000002f0: e1ab 223d 9868 0b3e ce34 e83d fa48 e43c
00000300: aa0e e4bd e843 c5bd 3343 a3bd 8e36 ddbd
00000310: 7859 9b3c 43d2 89bd 55f7 ec3d 4392 96bb
00000320: 907a 1b3c 095b 46bc bc6c 173d 82da 8bbd
00000330: 9f91 ec3d 5748 d3bc 53a6 723d b5fe 8dbd
00000340: ff13 b33d a92a 0d3b 296a 3c3d c2bd bf3d
00000350: abbb 2d3e 2978 8a3d f12f 1a3e 1c37 f83a
00000360: 3017 a23d ee96 0d3e 79e9 2d3e c6df 9bbb
00000370: 079a 01bd f6b8 35bd 0d61 0b3e c117 dabd
00000380: 975c d23d 5b6e b03d fc25 bbbc d312 803d
00000390: 712a 8bbc fa3e ad3d 661a ce3d f53b 053e
000003a0: f016 153e 49a2 0c3e fa10 19bc dcae 9ebd
000003b0: a19f 403e 93d3 9a3d 822c 393e f4dd 9cbd
000003c0: d960 0e3e 8c3e f53d bdc0 cd3b 8f0a 2d3d
000003d0: 89d3 113d bef2 a03d a08b 81bc 535b a4bd
000003e0: 7642 0b3e 3d47 d13d 3dd2 143e 7504 f6ba
000003f0: 29f6 c03d 5050 a0bd 69e8 293e e02f f93d
0.19322424 0.06453528 0.18223749 0.043728016 -0.00096919585 -0.02653211 0.036582023 0.06278695
-0.09581935 -0.006702161 0.080938034 -0.064851224 -0.017474582 -0.09817697 0.014915329 0.08551571
0.116742134 0.034067772 -0.08609746 0.014042259 0.00989491 -0.027061075 0.063622065 -0.0783564
0.16643411 0.07735026 -0.034531053 0.116574116 -0.012043484 -0.04934584 0.019146265 0.06863116
0.023326205 -0.048500273 0.014082141 0.08698664 -0.12719335 -0.07193246 -0.06538533 0.008876867
0.061998416 0.055150803 0.18804796 0.080539875 0.19574803 0.025600491 -0.00062186515 -0.12094761
-0.021710487 -0.02338264 0.028049659 -0.09780719 -0.027642746 0.0530552 0.0809426 -0.014656029
0.07371864 -0.09969436 0.11140559 0.064248525 -0.06073185 -0.08572564 -0.054225966 0.06771953
0.03886835 0.070909336 0.087592855 -0.010047548 0.01492845 0.053924616 0.1554537 0.034584098
0.024264509 -0.054264557 0.060443908 0.14406653 0.085044764 0.10787119 -0.06835645 0.08738772
0.065844834 0.08388761 0.19152068 0.057045165 -0.026634775 0.050044447 0.09570723 -0.050358083
0.17521812 0.06735255 0.04379802 0.060373504 0.0651543 0.024763556 0.14198242 -0.03565504
0.08151917 -0.08464745 0.13252719 -0.08216317 0.1114479 0.06666036 0.19108061 0.014027595
0.0050965487 0.08418146 -0.034382865 -0.08637959 0.05413824 -0.017152922 -0.048731826 -0.0003767208
-0.034132253 -0.02107047 -0.04351378 -0.09422968 0.021410609 -0.07223241 0.034816343 -0.04568649
-0.016957596 -0.016302051 0.14291108 0.11970082 0.119775295 -0.03800409 0.15295725 0.09431259
0.17863497 0.0637917 0.028215623 -0.0026706143 0.1617838 0.1437549 0.13596442 -0.009634797
0.02604013 -0.14046083 0.10629539 0.04311088 -0.04792479 -0.10809841 -0.009345962 0.0993264
0.018812703 0.114683054 0.030692264 0.08227041 0.19315241 0.093003966 -0.08087067 -0.104225546
-0.012494014 0.08511899 0.079524845 0.097697176 -0.016931668 -0.14018565 0.17759994 -0.0023205972
-0.15122025 -0.096509 0.19405225 0.028772889 -0.12025202 -0.019461524 0.032804735 0.10018886
0.115449324 0.008018077 0.15606752 0.008776028 0.14045025 0.061263278 -0.077100724 -0.08929549
0.05952309 -0.105580755 0.13681644 0.0236951 0.19712818 -0.03720276 0.10606389 0.04003056
0.11273605 0.04662315 0.10775624 -0.017878482 0.039714698 0.13614118 0.11338197 0.02786683
-0.111356094 -0.09632093 -0.079718016 -0.10801421 0.01896356 -0.06729557 0.11570612 -0.0045950725
0.00948967 -0.012106665 0.03696893 -0.068287864 0.115512125 -0.02579133 0.05924065 -0.06933347
0.08744048 0.002154032 0.04599968 0.09362365 0.16966121 0.067612 0.1505735 0.0018937322
0.07914579 0.13827106 0.16983594 -0.0047569005 -0.031641033 -0.044365846 0.1361124 -0.10649062
0.10271566 0.08614799 -0.02284526 0.062535904 -0.016988011 0.084592775 0.10063629 0.13011153
0.14559531 0.13733782 -0.009342426 -0.077481955 0.18810894 0.07559886 0.18083385 -0.07659522
0.13904132 0.119748205 0.0062790797 0.042246398 0.035602126 0.078587994 -0.015813649 -0.08025231
0.13599572 0.10218666 0.14533325 -0.0018769639 0.09421951 -0.078278184 0.16592564 0.121673346

lstm.weight_hh_l0 f4 [256, 64]
00000000: 10fd f43d 7ac2 2abd 5320 80bc c509 8abd
00000010: 66c6 063c 9546 a83c 1c8e 043e 2027 9b3d
00000020: 3f9d cbbc 94b4 5f3d 56af 1e3d 1e94 173e
00000030: f9ca c4bd bbe4 193e 3332 20bd f600 1abe
00000040: 788e fbbd 8ee5 13bd 12e2 b03d cd8e f1bd
00000050: 32de 82bd 40fe 10be 51db 083e 8a89 e5bc
00000060: 8994 d9bd 1a53 a53c 68c2 8f3d 3cab 64bd
00000070: 8282 e43d d60a 533d 051e e33d 4bda 85bd
00000080: 57e3 9a3d dac9 8d3d cdf2 cb3d fc7a 3d3b
00000090: 4a75 0abe 111c 573d 5ad0 96bd 18b0 0e3d
000000a0: d7b8 d63d f857 43be aa34 3abe fe19 e0bd
000000b0: b9ee 02be 66b4 913d a7af 003e 87bf e3bd
000000c0: 0ed8 0a3e 4597 44bd 5009 11be 3ba9 efbd
000000d0: 2bf6 5ebd 7f3c 983d 57ea d43d b118 1a3c
000000e0: c384 e7bd 71b8 83bd bcb0 a9bc 5d6c f7bd
000000f0: 14cd 90bd b052 82bc 1b3b 57bc a3e5 13be
00000100: dc25 7ebd 462d 11be 5492 9fbc 73ed cd3d
00000110: 11b1 5fbd 2686 b13d 6a1e e63d 9ca2 c1bd
00000120: 2972 c6bd f62a ad3a dbf3 643d e967 be3d
00000130: 4ef7 f83d 6c83 133e c331 7ebd c3dc 663b
00000140: b0a6 27bc 04c0 44bd e007 c83c 7b3f 89bd
00000150: fb6f 093d ea4e 953d e9a3 ab3d db38 3f3d
00000160: 103b 993b e3a9 a73c a2a7 1b3d 467e f2bd
00000170: 62bc f4bc 2f4c 8cbd 79e2 553d 0d4a 0f3e
00000180: 6c1a b5bc bb9b 6c3d 9cda b9bc ee1d 9c3d
00000190: 7878 5bbd da60 98bc 936f bdbc 0bc0 16bd
000001a0: ee5b 5a3d e492 1bbe 4479 5ebd e90a 963d
000001b0: 5e3c 233d 7a66 8bbd 8eef 7c3d e984 fcbd
000001c0: 13ae b6bc 478b 153e 024e 13bc c949 a2bd
000001d0: 708d f73c 4181 43bd f918 0b3e 407d 7e3d
000001e0: a992 87bb 8f9a fc3d 382e a2bb dbda 03be
000001f0: 9112 f03d 6195 58bd a1ed 073e 625f 1dbd
00000200: eef1 22bd d557 f43c 5bef afbd db28 e13c
00000210: 61c5 9f3b a94a 9bbd d91f e43d ffb6 52bd
00000220: 93be 843d 821b 48bd 66b8 ebbd 3adf 183c
00000230: 547b 9abd a17f c33d dde4 7a3d a464 43be
00000240: c32e f7bc 965c 08be b581 133d f574 c83c
00000250: 580a 90bd 0865 3abe 1d50 0d3e 9fca 38bd
00000260: f758 0d3b 554d b33d c948 613d 6058 93bc
00000270: 08a3 5bbd af4b ac3d 58e0 fbbd 6948 2d3e
00000280: f524 853d ef2b d93d 2013 a73c c231 81bd
00000290: 3fe5 2b3b 93cf bebd ce06 9c3c 2f9b 0c3e
000002a0: 0977 e8bd 66a6 f5bb 6848 0e3c 5f6e dd3b
000002b0: 8f75 9ebd 1191 323d e9b8 8e3d dd11 7e3d
000002c0: 760f 0b3e 971a b03d d97c 7dbc 7879 25be
000002d0: 401c 9cbc 11e8 b63d 0600 803c 18ea b23d
000002e0: e31a b6bd 34e7 50bd 5cb9 193e e939 7cbd
000002f0: c459 a93c a1e0 15be 106a cd3d d754 1fbe
00000300: 46a4 1dbd 5e97 2ebd c328 6e3d 7f49 bbbd
00000310: 0b88 aebd 2069 c63d 40f0 ab3d 8c25 f2bd
00000320: 5e85 bdbd 4626 113d 2a81 f03d 0b95 023e
00000330: 4460 13bc 3ae9 89bc 1e13 06bd 86db 2bbe
00000340: 1311 343c 83e7 02be fd4c c23b dc78 253d
00000350: 0953 ad3d 74df 03be d4b3 8c3d fdd0 02bc
00000360: 93d6 95bd 8e0e 90bd 9925 a33d 9db7 b6bd
00000370: c489 8bbd d0f5 cc3d f39a 9f3d 9caa a3bd
00000380: af7c 913c 952f 27bd 005a 1abd acb6 8ebd
00000390: ddd6 d3bd fac5 eebd 4dd7 d7bc 1d0d ab3d
000003a0: bb9b 8e3d b592 a33c 479c dfbd b4ee 04be
000003b0: e832 b63d be35 b0bd 90e9 c43d afff b73d
000003c0: b3bd 0c3e 71a4 de3d bd96 753c 3ae8 88bd
000003d0: b09c 77bd b618 ff3d 3e9e 9f3d eb10 afbc
000003e0: 7bce 9b3d 8f14 35bc fc93 8c3c 3880 d73d
000003f0: 5b7b 603d 5681 c03d e595 923d 790e c13d
0.1196233 -0.041689374 -0.015640413 -0.06740145 0.008226013 0.020541469 0.12944835 0.07575822
-0.024855254 0.054615572 0.038741432 0.14802596 -0.096090265 0.1502866 -0.039110374 -0.15039429
-0.12283033 -0.036107592 0.086368695 -0.11794815 -0.06390037 -0.14159489 0.13364913 -0.028019685
-0.10624034 0.020181227 0.07019502 -0.055827364 0.11157705 0.051524006 0.1108971 -0.06535777
0.07562893 0.06923266 0.0995842 0.0028912416 -0.13521305 0.052517 -0.07363959 0.034835905
0.10484474 -0.19076526 -0.18184152 -0.109424576 -0.12786378 0.071144864 0.12567006 -0.11120515
0.13558981 -0.047995824 -0.14163709 -0.117022 -0.054433983 0.07433414 0.10396259 0.009405301
-0.11304619 -0.06431664 -0.020714156 -0.120812155 -0.070703655 -0.01590857 -0.01313665 -0.14443068
-0.062047824 -0.14177427 -0.019478954 0.100550555 -0.054612223 0.08668165 0.1123627 -0.094548434
-0.09689743 0.0013211656 0.05589662 0.09297163 0.121565446 0.14405602 -0.062059175 0.00352268
-0.0102326125 -0.048034683 0.024417818 -0.06701561 0.03355406 0.07290442 0.08380873 0.04668508
0.0046762303 0.02046675 0.038001664 -0.11840491 -0.029874984 -0.06850468 0.052217934 0.13993092
-0.022107325 0.057765704 -0.022687249 0.07622896 -0.053581685 -0.01860087 -0.023124492 -0.03680424
0.053310327 -0.15192753 -0.054314867 0.073263 0.039852493 -0.06806655 0.061751895 -0.12330038
-0.022299802 0.14603911 -0.0089907665 -0.0792423 0.03021881 -0.047730688 0.13583745 0.062131166
-0.0041373563 0.12334167 -0.0049493574 -0.12876455 0.11722291 -0.052876834 0.13274242 -0.038421042
-0.039781503 0.029827038 -0.08590575 0.027485302 0.0048758243 -0.075826 0.11138887 -0.05144405
0.06481662 -0.04885436 -0.115097806 0.009330565 -0.07543054 0.09545828 0.061253417 -0.1908136
-0.030173665 -0.13316569 0.03601237 0.024469832 -0.07033223 -0.18202603 0.13800092 -0.04511511
0.002156792 0.08754984 0.055001054 -0.017986476 -0.053622276 0.08412873 -0.122986495 0.16922154
0.065011896 0.10604083 0.020394862 -0.06308319 0.002622917 -0.093169354 0.019046213 0.13731073
-0.11350829 -0.007496643 0.008684255 0.006757542 -0.07737266 0.043595377 0.069688626 0.062028755
0.13580117 0.085988216 -0.0154716605 -0.16159618 -0.01905644 0.08930982 0.015625011 0.08736056
-0.08891847 -0.051001742 0.15012115 -0.061578665 0.020672686 -0.1463647 0.100299954 -0.15559708
-0.03848674 -0.042624824 0.058144342 -0.09144878 -0.08522042 0.0968802 0.083954334 -0.11823568
-0.092539534 0.03543689 0.11743386 0.12752168 -0.0089951195 -0.016834844 -0.032733075 -0.1678296
0.010990399 -0.12783627 0.005929588 0.040398464 0.08463103 -0.1287821 0.06870237 -0.007984397
-0.073163174 -0.07034026 0.079661556 -0.0892174 -0.06813386 0.100078225 0.07793226 -0.079915255
0.01775965 -0.040816862 -0.037683487 -0.06968436 -0.10343716 -0.11658855 -0.02634778 0.083521105
0.06963297 0.019967416 -0.109184794 -0.12981683 0.08896428 -0.086040005 0.09614861 0.08984315
0.1374424 0.108712085 0.014989552 -0.06684919 -0.060452163 0.12455885 0.07793854 -0.021370372
0.076077424 -0.011052265 0.017160408 0.10522503 0.05480514 0.09399669 0.07157496 0.094265886

lstm.bias_ih_l0 f4 [256]
00000000: 3c37 08bd f847 5fbd 8e68 233d f8da f33d
00000010: a903 e53c c654 85bd e196 a0bd e73f b43d
00000020: 3bc8 f0bd 33bb 8b3d 2c1c 543d 563a cdbd
00000030: d74d 963d 71c0 b5bd 52f9 f1bc 82f2 093e
00000040: 0abb 9bbd 3e9d 523d c574 b9ba 6810 d1bd
00000050: c88d 8d3d 35a1 ba3c bfd4 603c 4b7e b5bd
00000060: 98bd 103e 3729 53bd c2fb 22bd 77b3 d9bd
00000070: 4334 a1bd 3c3b 9fbd 751a a13d 4f49 f63d
00000080: 87cc 04be bcd4 bc3b b793 033e 0601 d33d
00000090: 2b86 87bd d72c 163e acf4 023d ba5a 1d3d
000000a0: ce37 d3bc 88a0 8fbd dffb dd3d 7fda f2bc
000000b0: bd0f 253d 742f 94bd 6dca c33d 3024 9b3c
000000c0: 250a 013e c536 883d 5e8b fdbc 8f7f bdbd
000000d0: c405 9f3d 2c35 98bc e057 cc3d 8d00 903c
000000e0: fcef fa3c 686d 903d 16a8 3bbd c073 cabd
000000f0: aa73 28bd e406 f7bc fe34 9c3d c250 893d
00000100: bcd8 4a3d 97d9 ee3a 95d1 be3d 6c64 ee3d
00000110: facb 47bd 5d64 ddbd cfe8 ca3b 4823 fa3d
00000120: 95c4 b6bd ea03 063d 976a 32bd acd9 febd
00000130: d232 b4bd 99fd 5cbd 141c 86bd 344f 543d
00000140: e421 163c 13a9 0a3e 23c9 99bd a90b bc3d
00000150: 2fc4 d23d 1262 8bbd a8ec d2bb b89c 72bd
00000160: dc01 713d 2bb0 86bd ea84 fb3d 8398 1abd
00000170: 272d d2bd b7c4 d53d 22fa d23d 8a36 52bd
00000180: 1c5e 90bd 363b ce3d 84c1 fb3d 178e a9bd
00000190: 1a17 663d 2487 7cbd d505 c9bd 3402 0bbd
000001a0: 2b89 d9bd b1e6 bebc d779 753d 8aaa 5e3b
000001b0: e099 cbbc 5963 92bc fbd4 da3d c3af 823d
000001c0: 727d e13c c1ac 853d 876e e1bd cc62 873d
000001d0: 7567 a33c 4407 033d 2b1e 2d3d 54d9 9eba
000001e0: 9fd6 a8bd 80e7 763d 6f94 adbd aea5 a03d
000001f0: 6e82 333c 8b18 bfb9 8e48 90bd 3ecd f9bd
00000200: 2833 ed3d 7d99 64bd 73d3 5ebd f97e bc3d
00000210: 5446 de3c f9e9 5e3d 9051 543d a10d b73c
00000220: 04ea fc3b 552d 89bd eeb8 463c 5415 163d
00000230: a3b3 8e3d 3584 75bc b73c e8bc 02d6 903d
00000240: e7e7 d8bc 0891 353c ea99 003d 0f78 9abc
00000250: 153d e73d c2f9 333d 2d6e ecbd 0bfa 86bd
00000260: f920 0e3c d5f2 243d ae41 d4bb da7c a0bd
00000270: 24aa 34bd 72e5 513d d779 adbd 2a40 f8bd
00000280: ad28 c03d 2669 033d 8551 e2bc b4b7 cbbd
00000290: 3300 02be b98d bfbc 2c65 eb3c 3238 edbd
000002a0: 21a5 8fbd ac21 c2bd e14d 8e3d 1bd2 ebbd
000002b0: caf8 cbbd f106 37bd 296e 6dbd 5e44 813d
000002c0: ba1e f6bc 43c5 db3d 4792 92bd b719 053d
000002d0: 9010 47bc e9c1 6c3d aa6d 883d 1114 91bd
000002e0: ca18 b6bd dd05 c83d 0700 b23d a59d 46bd
000002f0: b46b 5b3d 957e 3dbd fa14 8ebc e15c cabd
00000300: a9f5 a1bd 1b96 a4bd 0ea5 2cbd ec74 5a3c
00000310: 2a9e 0dbe c5b8 1abd 5ae1 81bd 8ad5 86bc
00000320: 2096 fb3c c813 cbbc e928 1f3e 1a38 8cbd
00000330: f61d b83c e35e f13d 44e1 9dbd c12f 1b3e
00000340: 92e3 ce3d 8e7b b63c 2b87 d63d 5383 413c
00000350: 4867 8abb 8422 613d 94a8 d33d b631 863d
00000360: 3ba2 103e b4d1 5c3d ad12 0f3e 7138 a1bd
00000370: 6b40 a2bd c2ce 563c c0b2 dd3d 56b5 0c3e
00000380: 73ad e93c 626b 06bd 81cd a93d 70e6 cf3d
00000390: aa06 9fbc 3575 183d f3c8 8f3b a1a7 e1bb
000003a0: a166 e0bd b88c 63bd 9a23 0d3e d94e 98bd
000003b0: 1b32 de3d 9f00 85bd a30b b83d 39ed 22bc
000003c0: 6027 f03d ac5d 823c 4c03 7c3d b463 f53d
000003d0: c984 c6bd 5eec 28bd 6979 a4bd 3033 923d
000003e0: 3fc6 8f3d d505 0d3e 3286 c43d ed22 ea3d
000003f0: f316 883d b3ec c23d 34f6 193e 64b5 8abc
-0.0332558 -0.054511994 0.039894633 0.11906999 0.027955847 -0.0651031 -0.07841278 0.08801251
-0.11756941 0.06822815 0.05178468 -0.10020892 0.073390655 -0.08874596 -0.02953783 0.13471416
-0.07604034 0.05141949 -0.001414918 -0.10208207 0.06911808 0.022781948 0.013722598 -0.08861979
0.14134824 -0.051552977 -0.039790876 -0.10629933 -0.07871296 -0.0777497 0.078663744 0.12025701
-0.12968646 0.0057626646 0.12849317 0.103029296 -0.066173874 0.14665543 0.03197162 0.0384166
-0.025783446 -0.07013041 0.10839056 -0.029645203 0.040298212 -0.072356135 0.09560094 0.018938154
0.12601526 0.066510715 -0.030950245 -0.092528455 0.077647716 -0.018580042 0.09977698 0.017578388
0.030632012 0.070521176 -0.045814596 -0.09885359 -0.04112593 -0.030154653 0.07627295 0.067048565
0.0495231 0.0018222806 0.09317318 0.11640248 -0.04877851 -0.108101584 0.0061923037 0.122137606
-0.08924214 0.032718576 -0.043558683 -0.12443861 -0.08798756 -0.053952787 -0.06548324 0.051833346
0.009163354 0.13541059 -0.07509067 0.091819115 0.10291325 -0.06805815 -0.006436903 -0.05923149
0.058839664 -0.0657657 0.12281211 -0.037743103 -0.102625184 0.10437911 0.10301615 -0.051321544
-0.070492 0.10069887 0.122927696 -0.082790546 0.056174375 -0.061652318 -0.098155655 -0.033937648
-0.10621866 -0.023303362 0.05993065 0.003397616 -0.024853647 -0.017869638 0.10685154 0.0638118
0.027525637 0.06527091 -0.110074095 0.06610641 0.019946793 0.03198935 0.0422651 -0.0012119212
-0.08244061 0.06027937 -0.08475577 0.07844101 0.01095639 -0.00036448645 -0.07045089 -0.1219735
0.11582023 -0.05581044 -0.054400872 0.092039056 0.027133144 0.054422352 0.051835597 0.022345366
0.0077183265 -0.066980995 0.012129052 0.036641434 0.06967857 -0.014985134 -0.028349264 0.07072069
-0.026477767 0.011081941 0.031396784 -0.018856077 0.11290947 0.04393936 -0.11544452 -0.06590661
0.0086748535 0.040270645 -0.006477556 -0.078363135 -0.04410757 0.051244207 -0.08470505 -0.12121613
0.09382758 0.0320827 -0.027626762 -0.09947148 -0.12695388 -0.023383008 0.028734766 -0.11582984
-0.07013918 -0.09479079 0.06948448 -0.11514684 -0.09959562 -0.044684354 -0.057966385 0.06311868
-0.030043948 0.10730984 -0.071568064 0.032495227 -0.012149945 0.057802115 0.06661542 -0.070839055
-0.08891447 0.09766743 0.086914115 -0.048490185 0.05356951 -0.046263296 -0.017343987 -0.098809965
-0.07908184 -0.08036443 -0.042149596 0.01333354 -0.13829866 -0.037773866 -0.063418105 -0.016459245
0.030711234 -0.024789706 0.1554295 -0.06846638 0.022475224 0.11785676 -0.07708982 0.15154935
0.10101999 0.022275712 0.10475 0.011811095 -0.004223738 0.054964557 0.10334888 0.0655245
0.14124386 0.053910926 0.13971968 -0.078720935 -0.07922443 0.013110818 0.108251095 0.13741049
0.02852509 -0.032817252 0.0829115 0.10151374 -0.019412357 0.037221152 0.0043879687 -0.006886438
-0.10957075 -0.05555412 0.13783112 -0.07436914 0.108494006 -0.06494259 0.089865945 -0.009944254
0.1172626 0.015913807 0.06152658 0.119819075 -0.096932955 -0.041241042 -0.0803097 0.071386695
0.07020234 0.13771756 0.09595908 0.11432443 0.06645002 0.09517803 0.15035325 -0.016932197

lstm.bias_hh_l0 f4 [256]
00000000: ac42 81bd f43d 36bd 0e4d f23a a7b2 c53c
00000010: 1981 35bd 037d b8bd 22f6 be3c 87db 9e3d
00000020: 69d1 5fbd 65a7 88bd e89a a7bd 8cea a9bd
00000030: 300a 44bb d1d9 d73d 2092 0cbd c4b8 3e3e
00000040: 2ea2 f8bd 51bd d43d a7e1 aabd cb61 5dbd
00000050: 1444 ae3d 745f 833d 371f 273d 3b03 eb3d
00000060: e93d 853d 8665 6b3d 27ee d83d c38d 5b3d
00000070: 8721 2bbd 5a5b e53d e105 e0bb 6e37 363d
00000080: 46b7 cbbd 0a47 b63d 584d 133e 5ebc bc3d
00000090: f52c 61bd ba95 94bd 7a48 cabc 9649 073e
000000a0: a5d7 c1bd 0189 8abc 6185 d63b 066b f63c
000000b0: acf6 e83d 4673 91bd e3ac 0f3e 5c1b ea3c
000000c0: 57ce 103b 61a6 d43d a271 a6bd 6695 a83c
000000d0: 23a1 ae3d c2d1 ad3d b122 33bd 3e08 b23d
000000e0: 6e70 fe3d 0923 78bd 2bdf 64bd 1630 753d
000000f0: ed66 b5bd 318c e7bd e621 1abb 16ad a5bd
00000100: 4fe2 aaba 55f3 ca3d 8590 42bc f76b c2bc
00000110: ecfa 973a 9450 ac3c 7ab8 f2bc 65ba b73c
00000120: 03bc 4c3d e021 b63d 9288 dfbc 9ceb e6bd
00000130: 80fd e23d 17fa ccbc feb4 6cbd 3e53 603d
00000140: 5a75 dbbd ebf7 eb3c b0bf a73d 5756 853d
00000150: 2bd6 cf3d 8ffe 7f3d 4d88 0ebd fa1f bd3c
00000160: f6c3 193d bc11 693d 10be a5bd 13eb ff3c
00000170: 273f fd3d 0269 393d 17da 88bd f176 e43a
00000180: 97ff 023d 6ad6 49bd d497 173b 02fd 15bd
00000190: 63fd c0ba fb21 e23c 6f6e 143c 01fc 133e
000001a0: fdf6 c13d 43e6 953d 73a5 40bd c4b9 e13d
000001b0: d3a7 673d e220 0e3e 1e94 d03d 7cd8 41bd
000001c0: bfe9 b6bc 78a9 083e 8c19 053e 9d1c 32bd
000001d0: 5296 99bd 14cb dabc 72f1 513b ba81 20bd
000001e0: 75f5 e93d acd7 493d 562f 053e 58ef e4bd
000001f0: 5e9f 8f3c 8719 7bbd 4962 ab3d 1de9 0e3d
00000200: 3374 0d3c b682 bbbd 9351 a03b db0f d6bd
00000210: c619 c2bc 97ed 323d 0eff e53c 3ed7 f0bd
00000220: bd4a 80bd 0e91 01bb 49a3 543d 9cd9 f83c
00000230: 8ddb c9bd 2a15 b33d 0e1d 63bc 929d 153d
00000240: c304 a4bd 6f27 e3bd 7a47 36bd ee79 c6bd
00000250: e2f6 2b3d 846b 79bd c179 d23d a27f d0bc
00000260: ce4c 933c 4035 e6bd cd2b b73d d025 8dbd
00000270: 0030 d33d b08e ba3c e45b 173c 2297 b43d
00000280: a85b 7f3d 89fc bb3c 75e6 b9ba 21d9 f93d
00000290: f6c5 c53d ef68 ea3d fd0c 8e3d 017f 2fbd
000002a0: 268c efbd 4740 853c 14ff e3bc e494 0e3a
000002b0: 209b cbbc f072 fb3c 2dcb 703d 2c36 fcbc
000002c0: de38 0b3d 8f00 83bd 8d21 c8bd 418d efbc
000002d0: bc69 053d 9c9e a03d 0d5a 58bd f2fa ba3c
000002e0: 75da 57bd a507 1abd 56c4 78bb 5bf4 a53c
000002f0: ee41 d53c 9b1e 8fbc e086 a23d cd72 9cbd
00000300: e676 853d 435b 9e3d 4263 e33d 29fa a93d
00000310: b8ca cabd e330 393d 269d 85bd 1f42 c8bd
00000320: 94cb bb3d 053b adbd 903c 133e 8806 cfbd
00000330: bc26 833d fcd9 00bd 2cb1 22bd fddd f53d
00000340: 7c4a 7abc 04ba 45bd c3b6 6b3d 19ca f13c
00000350: e689 cf3d aa39 56bd 18f2 ecba d4ef e03d
00000360: d91c cabd dcd5 8cbd cae0 59bd eda3 b7bd
00000370: 2cf3 3fbb c62b afbd 3bfb 55bd 2c70 2b3e
00000380: a5af a23c 29ce 293d 85ad d2bd 5b38 a7bc
00000390: 00ed b23d bce5 09bd c25a ce3d 1e4b 96bc
000003a0: 1598 d53d 6f60 b63c 5f20 97bc d64b 0c3d
000003b0: 5ec2 573b 52ef 153e 43ee 8a3d 64ae de3d
000003c0: 9cd1 d53d e116 aabc 0e1a b9bc 05a4 a73d
000003d0: 537a 31bd 5ad3 5b3d 87bf a6bd c7a7 1dbc
000003e0: 6c5b 0e3e 9b4b d3bd d7e4 cd3d 7245 513d
000003f0: d7bc 06bd a1ce cbbd 1f73 bc3d 84bd 443d
-0.06311545 -0.044492677 0.0018486099 0.02413304 -0.04431257 -0.09008219 0.023310725 0.07756715
-0.05464307 -0.06672553 -0.08183843 -0.082966894 -0.0029913299 0.10539592 -0.034319043 0.1862517
-0.12140308 0.10387672 -0.08343821 -0.05404834 0.085090786 0.064146906 0.040801253 0.114752255
0.06505949 0.057469867 0.10592299 0.05360199 -0.04178002 0.111990646 -0.0068366383 0.044486456
-0.09947066 0.089002684 0.14384973 0.09215616 -0.054974515 -0.072551206 -0.024692763 0.13211665
-0.09464959 -0.016911032 0.0065466617 0.03008033 0.11375174 -0.07102065 0.14030795 0.0285775
0.0022095644 0.10383297 -0.081271425 0.020579051 0.08526828 0.08487274 -0.043734256 0.08692978
0.12423788 -0.060580287 -0.055876892 0.05986031 -0.08857522 -0.11306036 -0.002351874 -0.08089654
-0.0013037416 0.09909693 -0.011875276 -0.023733122 0.0011595166 0.021034516 -0.02962898 0.022427747
0.04998399 0.0889318 -0.027286801 -0.11275408 0.110835075 -0.025021596 -0.057789795 0.054766886
-0.107157424 0.02880474 0.08190858 0.06510609 0.10148271 0.062498625 -0.034797955 0.023086537
0.0375404 0.05690168 -0.08092892 0.031240022 0.12365561 0.04526616 -0.06682222 0.0017430467
0.03198203 -0.049276747 0.0023131268 -0.03661824 -0.0014723953 0.027604094 0.009059533 0.144516
0.094709374 0.073193096 -0.047032785 0.1102176 0.056556534 0.13879731 0.10184501 -0.047325596
-0.022328256 0.13345897 0.12998027 -0.04348432 -0.074993744 -0.026708163 0.0032034782 -0.039186217
0.1142377 0.049277946 0.13006338 -0.11178464 0.017532047 -0.06130364 0.08368356 0.034890283
0.008633661 -0.091557905 0.004892537 -0.10452243 -0.02369393 0.043683615 0.028075721 -0.11759804
-0.06264255 -0.0019770297 0.051913533 0.030377202 -0.09856329 0.08744271 -0.013861908 0.036527224
-0.08008721 -0.11091506 -0.04450176 -0.09691225 0.041983493 -0.06089355 0.10277129 -0.025451485
0.01798096 -0.112406254 0.08943901 -0.06891978 0.1031189 0.022773117 0.009238217 0.08817889
0.06234327 0.022947567 -0.0014183061 0.12199617 0.09656899 0.11445796 0.06936071 -0.04284573
-0.11696653 0.016266001 -0.027831592 0.00054390565 -0.024854243 0.030694455 0.058787514 -0.03078755
0.03398978 -0.06396591 -0.09772024 -0.02924216 0.03257154 0.07842752 -0.052820254 0.022824738
-0.05269857 -0.037604947 -0.0037958822 0.02025812 0.026032414 -0.017470649 0.079358816 -0.07639084
0.06516819 0.077322505 0.11102916 0.082996674 -0.09901947 0.045212638 -0.06524114 -0.097782366
0.09169689 -0.08458523 0.14378572 -0.101086676 0.06403872 -0.031457886 -0.039719746 0.120052315
-0.0152765475 -0.0482731 0.057547342 0.029515313 0.10133724 -0.052301086 -0.0018077521 0.109832436
-0.098687835 -0.06876728 -0.05319289 -0.08966813 -0.002928923 -0.08553271 -0.052241545 0.16742009
0.019859144 0.041456375 -0.102870025 -0.020412615 0.087366104 -0.033666357 0.100759044 -0.018346366
0.10429398 0.02226278 -0.018448053 0.03425201 0.0032922248 0.14642075 0.06783726 0.10873106
0.104403704 -0.020762863 -0.022595432 0.08185581 -0.043329548 0.053668357 -0.08142 -0.009622521
0.13902062 -0.10317155 0.10053413 0.05109162 -0.032894935 -0.09951521 0.09201645 0.0480323

lstm.weight_ih_l1 f4 [256, 64]
00000000: b643 0c3d dd7e 94bd 52c9 e83d 8fd8 ff3d
00000010: eefd d43a 6949 fd3d 40d0 703d 0999 c7bc
00000020: d20c 06ba 3df9 983d 8320 a43d 3774 ccbd
00000030: 69e9 7abd 5411 b93d c27d fa3d ee58 25be
00000040: f12e 923c 1eb6 cebd f450 acbd 0e19 f2bc
00000050: a07d 623c bb6b 893d af7f cebc 1394 c2bd
00000060: ee29 60bd f970 98bd d6c2 2c3d 62e2 f13d
00000070: 55d5 e83d f644 793c b95b c73c f026 8c3d
00000080: 5e43 e33d 0768 59bd c7de 083d 726d b3bd
00000090: 713e 08bd 79bf 863d 8c64 343d a0d3 92bd
000000a0: 50d5 e7bd efbe 10be c8b2 ffbd 2123 e73c
000000b0: 6bfd 3dbd 4057 0d3d 0d02 e93d 6056 f1bd
000000c0: 3cea a9bb 9275 a2bd fea9 0f3d 19e5 353d
000000d0: 8e51 333c ade6 ec3c 30b5 dd3d 6fdf fbbd
000000e0: 60e3 d2bd 5c94 883d a551 5a3d 19de 713d
000000f0: 7be0 c73d 559f 76bd a7fa d7bd da83 8e3d
00000100: 2088 9c3d 7120 bdbd 65cc c93d d30c ba3d
00000110: 2d1b 1e3d 7ef4 c43d d6a7 163d 3019 b43d
00000120: 2d5d d53d 0855 a1bd c307 9cbd 5a9e d9bd
00000130: 8bf9 88bd 48d8 96bd 5d7a 873d afca 1dbe
00000140: 4430 913d 5f97 b53d 4726 fa3d 1473 293d
00000150: 34a9 cabd 9dc9 34bd 248d b93d 17df 9c3b
00000160: 3152 ddbd 1caf fc3c d421 acbd ab01 5a3b
00000170: 34dd f7bd 16e4 533d 6d3c 2fbd 445c 0e3e
00000180: 7ea8 a1bd 2443 623d b675 583c 3e57 163d
00000190: 8d24 dfbd 77fc c73d faa6 1bbd e0a4 873d
000001a0: 70ae 0d3d 4298 0fbd 2327 b4bc dc7b ae3d
000001b0: 573f e93c 9608 c13c d271 30bd 8a43 fdbd
000001c0: e328 f23c 7b63 833d 310e f4bd 44dd 6b3d
000001d0: 0109 57bd ea0e 1bbd 08e7 8b3d 7595 a23d
000001e0: 7bbf 96bd 8554 633d 3e1e 92bd cfee e13c
000001f0: 2e43 2cbd c201 883d 3373 473d e2e5 c53d
00000200: ac2f a53c e709 f2bd 8ab1 3c3b 4af2 a23d
00000210: b765 963d e382 883d d5bf e53d 902b bd3d
00000220: fca5 63bd 7320 8dbd e1f9 14bd fdbc c53c
00000230: 9cea 94bd d9b1 783d 1b74 ac3c 6f0d f2bd
00000240: 4110 d1bd 6f74 103d 0723 00be 8d2d 34bd
00000250: 9a87 68bd 50aa a2bd a819 f4bc fd72 ed3d
00000260: fbc8 f2bd be3e 6f3c 5f85 90bc 3513 31bc
00000270: 9d5d d3bd 23f2 71bc e219 b03d 56ee bdbc
00000280: b474 e2bd dca0 29bd 2cce 8a3d 0aa4 7abd
00000290: 9e7e 843c cbda bfbd fafa ab3c 6b51 0e3d
000002a0: f2c5 8dbd b909 bbbd 5684 dfbd cd71 273d
000002b0: 46bb a13c 7f11 903d 8055 c1bd a378 33bd
000002c0: 6880 843d 49df f03d a5fc 1ebd 02be ffbd
000002d0: 8d77 d03d 9300 083e 97ed a53d add4 6cbd
000002e0: b353 31bd afdd 093d 8045 bdbb a521 bebd
000002f0: 6316 193d 42a2 0ebe 949f 533d 1991 8b3d
00000300: 02a8 27bd ddf8 acbb ed7c 153d 02d8 ca3d
00000310: d7e4 b13d 4ea9 a1bd d070 a03d c04a 863c
00000320: f0dd 783d 4570 873d 383f baba e527 84bd
00000330: ca68 95bd dccf 123e fe0d 763d 8aeb 17be
00000340: a858 d9bd 5f18 783d 1832 8d3d 34d3 cebd
00000350: 45f9 6e3b 2f03 bcbd 4160 ad3c a3ff d2bd
00000360: f95e 8fbd ba5c 70bd 042d b5bd a30a ac3d
00000370: dd6f f83d b87b 89bc 9c25 883d 0375 38bd
00000380: 6bdc 503d 6866 c23c 3d10 063e c8fe 96bd
00000390: d8ee b83d 4967 bc3c 01e9 9dbd d1bf e33c
000003a0: 82e9 5e3d 8e76 4dbd 55f7 d43c 98bb edbd
000003b0: 3b2a e7bd 7627 6e3c 54ec 453d 78b0 53bd
000003c0: d959 8abd b479 2fbd 82e4 4abd 5070 41b9
000003d0: 86a0 04bc 334b 5fbd 1e52 4f3c cc57 f9bd
000003e0: 22f8 14bd 9bf7 033e 4629 583d 6df1 db3d
000003f0: baac 7e3d f493 06be 53d8 ce3d e771 183d
0.03424426 -0.0725076 0.11366524 0.12492477 0.0016249993 0.123675175 0.058792353 -0.024364965
-0.0005113605 0.074694134 0.080140136 -0.09983104 -0.061257754 0.09036508 0.12231018 -0.16147205
0.017844649 -0.1009333 -0.08413878 -0.029552963 0.013823897 0.06710001 -0.025207369 -0.09500899
-0.054727487 -0.07443423 0.042177998 0.11810757 0.11368815 0.0152141955 0.024335729 0.06843364
0.11096834 -0.053077724 0.033415582 -0.087611094 -0.033262674 0.06579489 0.0440412 -0.071692705
-0.11319983 -0.14135335 -0.12485272 0.028214993 -0.046384256 0.034507036 0.11377344 -0.11784053
-0.0051853936 -0.07932581 0.035074227 0.044407938 0.010944737 0.028918589 0.108255744 -0.12298476
-0.102972746 0.06668922 0.05330052 0.0590497 0.09759613 -0.060210545 -0.10545855 0.069587424
0.07643151 -0.09234703 0.09853438 0.09084477 0.038600136 0.09616946 0.036781155 0.08793867
0.104181625 -0.078775465 -0.07618668 -0.10625906 -0.066882215 -0.07365471 0.06615136 -0.15409349
0.07089284 0.08866762 0.12214332 0.041369513 -0.09895554 -0.044137586 0.090601236 0.0047873366
-0.108066924 0.030845217 -0.0840489 0.0033265154 -0.12102738 0.05173119 -0.042782236 0.13902384
-0.078934655 0.05523981 0.013211658 0.036704294 -0.108956434 0.09764951 -0.038001038 0.06623244
0.034590185 -0.035057314 -0.021991318 0.08519718 0.028472586 0.023563664 -0.043077298 -0.12366398
0.029560512 0.06415459 -0.11916769 0.057584062 -0.05249882 -0.03785602 0.06831175 0.07938663
-0.07360741 0.055500526 -0.071346745 0.027579693 -0.042056255 0.0664096 0.048693847 0.09662987
0.020164333 -0.11818295 0.0028792345 0.07956369 0.07343619 0.0666559 0.1121823 0.092368245
-0.055578217 -0.06890955 -0.036371116 0.024137968 -0.07271311 0.060716484 0.021051457 -0.118189685
-0.10208178 0.03526729 -0.12513362 -0.043988753 -0.056769945 -0.07942641 -0.02979739 0.11594198
-0.1185474 0.014602361 -0.017641721 -0.010807802 -0.1032059 -0.014767203 0.08598687 -0.023184936
-0.110574156 -0.041413173 0.067776054 -0.061191596 0.016173657 -0.09367903 0.020993698 0.034745615
-0.06922521 -0.09132714 -0.10913913 0.040880013 0.01974262 0.07034587 -0.09440136 -0.04381622
0.06469804 0.11761338 -0.03881516 -0.12487413 0.101790525 0.13281469 0.08101957 -0.05782001
-0.043292712 0.03365868 -0.0057761073 -0.09283761 0.037374865 -0.13929084 0.051665857 0.068147846
-0.04093171 -0.0052786903 0.03649609 0.099044815 0.08686226 -0.078936204 0.07834017 0.016393065
0.06075853 0.066132106 -0.0014209514 -0.06452922 -0.072953776 0.14337105 0.060071938 -0.14835945
-0.10612613 0.060570117 0.0689432 -0.100988775 0.0036464494 -0.09180295 0.021164062 -0.10302665
-0.070005365 -0.05868218 -0.08846477 0.08400466 0.12130711 -0.016782627 0.066477984 -0.045033466
0.050991457 0.023730472 0.13092132 -0.073728144 0.09029931 0.022998469 -0.077104576 0.027801426
0.05442191 -0.05016189 0.025996843 -0.11608046 -0.11287352 0.014535775 0.048321083 -0.051681966
-0.06755418 -0.042840675 -0.04953433 -0.00018447754 -0.008094912 -0.054515075 0.012653856 -0.12174949
-0.03636945 0.12887423 0.052773736 0.10739408 0.062176444 -0.13142377 0.10099854 0.037218

lstm.weight_hh_l1 f4 [256, 64]
00000000: 5def e0bd 0302 7e3d bb81 94bd b123 85bd
00000010: 59f3 7bbd c3e0 ea3d feaa 533d 005f 863d
00000020: ba9c f13c 6a80 753d 720a 81bd 94c0 c03d
00000030: dac8 293d 27fc da3d 93a2 bcbc ca9b c3bc
00000040: b277 08bd 4106 db3d 3e7b 91bd 9dfc 65bd
00000050: cbd4 1c3c 9eb2 e1bd c7b1 143d 0af3 cfbd
00000060: 2e34 d83d 7160 cc3d 4bdc e23d 11ba e93c
00000070: e79c 80bd 5415 3dbd fd26 e13c 05c3 ecbb
00000080: f119 b9bd 1dda cbbd f4d5 e63d db6c 803d
00000090: 99ae e3bd 9d1d f63d 43af d5bd 9e37 99bc
000000a0: 19d1 9cbd dd79 2bbd d292 d0bd 201f cdbd
000000b0: e492 41bd 544f b5bd d0ad 4cbd 77d8 2e3d
000000c0: 647e 32bd 6f7a 3e3d 7d6c 743d 4718 2bbd
000000d0: 0e73 55bd 906a 76bd 4f03 08bd 5fbe 583d
000000e0: 895b 66bd 583b bdbd 62f9 b4bd 8948 8f3c
000000f0: c007 2ebc aff4 133d 6026 f03c ecf4 c23d
00000100: 6ca7 a0bd 272f 7d3d 6947 adbd bb13 da3d
00000110: ba32 24bc f0eb d2bd 66dc ab3d ad92 abbd
00000120: 8343 5c3d e0e9 b8bd 58bc 41bd a65b a43d
00000130: 09c0 b33d 7fb4 0fbd e44c d7bd 1718 a5bd
00000140: 5498 b13d 4b9b 743d 04c0 103c 6378 423d
00000150: 0574 47bd e50b 9cbd 93b8 14bd 99f0 cf3d
00000160: 0f28 a03d 6ab6 c4bd ff25 8bbd 99aa a7bd
00000170: 1712 09bd 1072 13bd a6a1 2cbc bf5a 89bd
00000180: 4bb3 ffbb 0e11 523d fa65 a2bd d72e f03d
00000190: a025 9a3c 98b7 8e3c cd25 aabd 05cc 3f3d
000001a0: e9bb a2bd eeb6 fa3c 3270 6b3d 16f7 333d
000001b0: 9138 90bc 2932 8abc f75f b23c d750 a53c
000001c0: 08ae 7f3d 13a8 9a3d 9863 703d 44f5 7bbd
000001d0: 89b7 e33c c9a5 5a3c 9dd4 a8bd 4cc3 103d
000001e0: 60d3 8b3c 24ed 3b3d da04 af3b fcd2 9b3d
000001f0: ba48 de3d 4352 16bd fe69 d5bb 2496 303d
00000200: 8ca7 03bd 9200 503c 402d e33d be70 093d
00000210: f243 453d 6f7e bc3c 8b13 5cbd f39a e93d
00000220: e69e d8bd 4164 e73d 75ef 653d 4fc2 ed3c
00000230: 1b8e e9bc c924 943d 87f4 4dbd 46d9 b03c
00000240: bafd 303d d597 afbd 497c 053e d0c5 a23d
00000250: 8f04 963c 897b dabd 2d88 9fbc 4932 bf3d
00000260: fca7 d03c 5b3d 0d3c da03 a8bc 1ec4 e9bd
00000270: b859 003e 7d30 4e3d 37f2 65bd dd56 aabd
00000280: eac0 9cbd 369f 293d d9e7 fb3c 6f3a 833d
00000290: e2de db3d 790d 813d a0b6 573d 9148 8abd
000002a0: 3830 dcbd 4544 9ebd 0773 a1bc ba16 9b3d
000002b0: 7769 c33d 4e9f aa3d 7851 c4bd 317b 7cbd
000002c0: dfdf 98bd 4da5 49bd 830f 88bd ef16 013d
000002d0: 90ca f7bd e360 91bc 0a85 98bd bd0e 183d
000002e0: 2435 c0bc fcc8 aabd 7a74 bb3d 8230 b03d
000002f0: 6bbf cabd de62 283c 0e73 023e f067 e13d
00000300: fed7 e43d 55d0 90bd 8db4 813d 10d5 403d
00000310: f9f7 21bd 638e 4f3d 9005 d33d 07c0 9cbc
00000320: 795b abbd 3a13 74bc a26e f1bc fd8f e9bb
00000330: 6a67 02bd db66 b43d dbc3 d63d accb 7d3d
00000340: 6449 b83d acd9 a4bd 1a0b e4bd f2e5 413d
00000350: 36a1 a43d f498 85bc 269f 143d 84cd 76bd
00000360: 60be 12bd 4102 27bd 3d8f 4b3b b260 82bd
00000370: 4381 acbd 3b20 c4bd 025d e93d 303b 833d
00000380: 4048 73bd 6ed9 d0bd 20cf 02bc 7764 aebc
00000390: 28a0 c2bd 27a0 2b3c 235a 1cbd f50e 06be
000003a0: 3ece a1bd 34b3 f53d fc95 af3c 4bb0 783d
000003b0: f671 c7bd f030 a4bd 07b8 333d 5566 f83c
000003c0: c374 bebd 303d 8e3c c4c0 463d ca23 013e
000003d0: b310 9e3d 64a3 5e3d 3391 b93d 01f4 f7bd
000003e0: d794 1d3d 1e62 ab3d 426e c9bd ce7e ab3d
000003f0: 0d8d c03c c2c3 cf3d fbe6 f13d eef4 46bd
-0.10983155 0.062013637 -0.072513066 -0.06500948 -0.06151137 0.11468651 0.051676743 0.065610886
0.029493678 0.05993692 -0.063008204 0.09411731 0.041451313 0.106926255 -0.02302674 -0.023877997
-0.033317275 0.10694552 -0.07103585 -0.056149114 0.009572218 -0.11020397 0.036302354 -0.10153778
0.105568275 0.09979332 0.11077174 0.028531106 -0.06279927 -0.04616292 0.027484411 -0.0072253966
-0.09038151 -0.09953711 0.11271277 0.062707625 -0.11117286 0.12017367 -0.10433819 -0.018703278
-0.0765707 -0.041864265 -0.10184254 -0.10015702 -0.047259226 -0.08853021 -0.049970448 0.042686906
-0.043577567 0.04650348 0.059673775 -0.0417712 -0.052111678 -0.06016022 -0.03320628 0.052915927
-0.05623964 -0.092398345 -0.088366285 0.017490642 -0.010621965 0.03612202 0.029315174 0.095193714
-0.07844433 0.061812546 -0.08460886 0.106482945 -0.01002186 -0.10298908 0.08391647 -0.083775856
0.05377532 -0.09028983 -0.04729876 0.08025293 0.08776862 -0.035084244 -0.105127126 -0.080612354
0.086716324 0.05971841 0.008834843 0.04747809 -0.04869463 -0.07619456 -0.036308836 0.10153312
0.078201406 -0.09605105 -0.067943566 -0.08186836 -0.033464517 -0.03599745 -0.010536587 -0.067067616
-0.007803356 0.051285796 -0.07929607 0.11727684 0.01881677 0.017421529 -0.08307991 0.046825428
-0.07945997 0.030604806 0.057480045 0.04393681 -0.017605098 -0.016869621 0.021774275 0.020180149
0.06242183 0.07551589 0.05868873 -0.0615132 0.027797477 0.01334519 -0.08243678 0.0353425
0.017068565 0.04588045 0.0053411545 0.076086015 0.10853715 -0.036699545 -0.0065128794 0.043111935
-0.032142207 0.0126954485 0.11092615 0.033554785 0.0481605 0.023009507 -0.053729575 0.11406507
-0.105771825 0.11298419 0.056136567 0.029023318 -0.028510144 0.07233579 -0.050282028 0.021587979
0.043210723 -0.085738815 0.13035692 0.07947886 0.01831272 -0.10668094 -0.019474113 0.09335763
0.025470726 0.008620585 -0.020509649 -0.114143595 0.12534225 0.05033921 -0.056139197 -0.08317349
-0.07653983 0.0414116 0.030750202 0.0640763 0.10735871 0.06301398 0.0526644 -0.06752122
-0.107513845 -0.07727865 -0.01970817 0.07572694 0.095416 0.08331166 -0.095858514 -0.061640922
-0.07464575 -0.04922991 -0.066435836 0.03151601 -0.120991826 -0.017746395 -0.0744725 0.03712343
-0.02346284 -0.08339116 0.091530755 0.08603002 -0.09899791 0.010277478 0.12739202 0.11006153
0.1117401 -0.07070986 0.063332655 0.047078192 -0.039543126 0.0506729 0.10303795 -0.019134535
-0.083670564 -0.014897162 -0.0294717 -0.0071277604 -0.031836905 0.088086806 0.10486575 0.061961815
0.08998373 -0.0804933 -0.1113493 0.047338434 0.08038561 -0.016308285 0.03628459 -0.06025459
-0.035826087 -0.040773634 0.0031060718 -0.063660994 -0.08423092 -0.0957646 0.11394693 0.064077735
-0.059395075 -0.101977214 -0.007983953 -0.02128814 -0.09503204 0.010475195 -0.0381719 -0.13091643
-0.07900666 0.11997071 0.021433823 0.060715 -0.09738533 -0.080171466 0.043876674 0.030322233
-0.09299614 0.01736316 0.04852368 0.12611309 0.07718029 0.05435504 0.09060898 -0.12107087
0.038472023 0.08368324 -0.09835483 0.083737954 0.023504758 0.1014476 0.11811634 -0.048573427

lstm.bias_ih_l1 f4 [256]
00000000: 1a90 e63c 5b32 d23d 4649 d63d 5815 85bd
00000010: 03b0 e03d 05ea df3d 4fe7 7bbd 53ba 7bbc
00000020: 2b60 c13b 652e 2fbd a058 86bd d47c e0bd
00000030: a733 cc3c 2083 34bb 3f7d a13d ccac d73d
00000040: a1c8 e53d 4e9f 943d efb5 963d af44 0f3e
00000050: ee92 96bd 8906 ee3d d161 c63d da19 1bbd
00000060: 10a4 4cbb 440a 90bc 6427 edba fe66 fabc
00000070: 826b c23d 94b6 b7bd 65f4 5e3d cc93 7cbd
00000080: 9407 dcbd 433d d8bd 7e78 c2bd 117f e2bd
00000090: a825 3f3d b483 53bb 1994 08bd 19a3 46bd
000000a0: 692b f6bd 75ef 823d 3170 073e a02f 0bbe
000000b0: 823c 0cbe beee 4d3a ffaf e5bd cfd5 703c
000000c0: e28d 8ebd b98b 09be 3b72 8a3d 642f f0bd
000000d0: e313 94bd 37d6 0bbe 26d4 f7bd f3d9 dd3d
000000e0: dceb 093e 2a3e 4d3d bb17 c4bd b908 2ebd
000000f0: 3ac0 dcbd c5f7 40bb e945 703d 8cdb f8bd
00000100: 6d8b babd 8d83 22bd 6d8f 91bc 42d1 c3bd
00000110: 61ae e43c 5bf0 bd3d e159 023c a81e 21bd
00000120: 7f04 a4bd 3567 613d f854 d4bb 8752 043e
00000130: 76f0 373d a98d abbd bc28 e8bd bb1e 673d
00000140: 457e 64bd 4187 af3d 8a76 c5bc 5486 41bd
00000150: 3efc df3c 2fd2 943d 33a3 723d 6aa8 a8bd
00000160: ed82 9fbd c85a 9e3b 4b83 87bd 6e84 853d
00000170: 3fa8 b5bc 88be 07bc 3bd9 26bd 6ca1 13bc
00000180: b395 fc3d 9695 c53d 4996 3d3d 16e7 863d
00000190: ebb8 27bd 24f0 96bd ddfd c03d 084b c4bc
000001a0: b4f4 c1bd 7763 c23d 1329 ca3d b112 f3bd
000001b0: 3b02 63bd ccbb 943d 2040 083b 26cc 3ebc
000001c0: fb51 b3bd 7d28 12be 9644 fd3d b0e7 e03d
000001d0: 51e1 fb3d 5ed6 9abd 7231 3bbd e958 74bc
000001e0: 0c40 6abd 6c30 ed3c 23eb 3c3d 3139 b33b
000001f0: c6a3 643d 749b 0d3d 6e6f a33d d227 a1bd
00000200: 079e 983d a06b 393d bcae abbd 7696 72bd
00000210: dc6b d13d b550 9c3d b30a c03d 8795 37bd
00000220: 7f19 8b3d 9601 3cbd 987f 56bd 2be6 ac3d
00000230: 2c86 d23d dc50 eb3d bba3 023d 756e 223d
00000240: 44ca 073c a73e 323d a368 3fbd 8683 49bc
00000250: 8594 a0bc 230a 16bc 861c 813b f556 bbbd
00000260: 2dab a0bc 86a4 6ebd c4c5 a6bd 3753 a9bd
00000270: 8605 9b3d b9bf 83bd 6148 5f3b 6b1b d63d
00000280: 9901 a8bc 08c2 f13d 1c0b 17bd d3c7 c9bd
00000290: 72db 883d 4fbf 5439 b7d9 503d 2629 883d
000002a0: b635 843d 5a38 e83c 49b3 983c b314 5d3d
000002b0: fed1 b7bd cf0a b53d 36f7 7bbd 52c0 a13d
000002c0: aa18 ce3c 9b47 ecbc f971 a4bd 06be d0bc
000002d0: 68f0 f53c f0eb acbc 7876 d6bd 7342 babd
000002e0: f683 a23d 26a8 693d f05d c3bc e09a 34bd
000002f0: f73f c5bd 463d db3d d401 a83a 0758 65bd
00000300: b290 1a3d 3c86 eebc 5dff 673d 8107 71bd
00000310: df5c bf3d 6cd3 d13c 14e5 f03c 0490 66bd
00000320: 2872 75bd 4e8c e8bd b78d 6c3d f612 cf3c
00000330: d60f 813d 6636 0f3d 0144 a53c 77a4 bc3d
00000340: 6444 42bb 28c2 e13b b0fa b9bd 9d73 78bd
00000350: 4766 f23d a8db 8b3d 60f0 80bd 255c cf3d
00000360: ab35 023e 84ad e2bd d3b5 9d3d 9d5b d73d
00000370: f2a9 933d 3a93 033e 66a4 a9bd 7dad 96bc
00000380: bb24 923d 6959 fbba 21ce 1b3c e9de 913d
00000390: 4224 e3bd d360 a73d 99bd dc3d aeac 5a3d
000003a0: 4b28 c93c ab1f 063c af84 033e 8896 7bbd
000003b0: 78aa 613d 2191 063d ab15 98bd b2f6 dd3d
000003c0: adf8 ac3c 23d8 9dbd 13d8 673d f1d7 87bd
000003d0: 836a 8cbd 50d2 683d 2a73 b7bd 97a4 c03a
000003e0: 680c aa3d 67cd 37bd bac7 453d d567 83bc
000003f0: 9df6 d9bd 1bac dabd a780 82bd 933e f6bd
0.028144885 0.10263511 0.104631945 -0.064982116 0.109710716 0.109333076 -0.06149989 -0.015364247
0.0059013567 -0.042768855 -0.065598726 -0.10961309 0.024926974 -0.0027543977 0.07885217 0.10531005
0.112199076 0.072569475 0.0735892 0.13991044 -0.07352243 0.1162234 0.09686626 -0.03786645
-0.0031225719 -0.01758302 -0.0018093404 -0.030566689 0.09493162 -0.08970371 0.05443229 -0.061664388
-0.10743633 -0.1055856 -0.09495638 -0.11059392 0.04666677 -0.0032274546 -0.033344362 -0.048495386
-0.120199986 0.06393329 0.13226391 -0.13592386 -0.13694957 0.0007855705 -0.11215209 0.014699413
-0.06960656 -0.13432206 0.06760069 -0.11727789 -0.072303556 -0.13655935 -0.12101011 0.10832586
0.1346888 0.050108112 -0.09574839 -0.042488787 -0.10778852 -0.0029444557 0.05866042 -0.1215125
-0.091086246 -0.039676238 -0.017768586 -0.09561397 0.027915182 0.0927436 0.007955999 -0.039335877
-0.0800867 0.055030067 -0.0064798556 0.12922107 0.044907056 -0.08376629 -0.113358945 0.05642579
-0.055784483 0.085707195 -0.024104375 -0.047247246 0.027341958 0.07266652 0.05923767 -0.082352474
-0.07788644 0.0048325993 -0.06616839 0.065193996 -0.022174953 -0.008285172 -0.04073451 -0.009010654
0.1233324 0.09647672 0.0462859 0.06587045 -0.040947836 -0.07370022 0.094234206 -0.023961559
-0.094705015 0.09491628 0.098711155 -0.118687995 -0.05542205 0.07262382 0.0020790175 -0.0116453525
-0.08755871 -0.14273258 0.12366597 0.10981691 0.12298835 -0.075604185 -0.04570145 -0.014913776
-0.057189986 0.028953753 0.04612268 0.005469464 0.05582025 0.03457208 0.07980238 -0.07868923
0.07452016 0.045268655 -0.08382937 -0.059225522 0.10225651 0.07632581 0.09377041 -0.044820335
0.06791972 -0.04589995 -0.052367777 0.084423386 0.102794975 0.11490032 0.031894427 0.03965612
0.00828797 0.04351678 -0.04673065 -0.012299424 -0.01960207 -0.00915769 0.003940168 -0.09147445
-0.019612873 -0.05826237 -0.081431895 -0.08267825 0.07569413 -0.064330526 0.003407024 0.10454448
-0.020508574 0.11804587 -0.03687583 -0.098525666 0.06682481 0.00020289164 0.05098888 0.066484734
0.06455557 0.028347183 0.018640177 0.05397482 -0.089756 0.08839952 -0.061515056 0.0789801
0.025158245 -0.028842738 -0.08029551 -0.025481235 0.030021861 -0.021108598 -0.10471815 -0.090947054
0.07935326 0.057045124 -0.023848504 -0.044093013 -0.09631341 0.10705046 0.0012817928 -0.055992153
0.03773565 -0.029116742 0.056640018 -0.058845047 0.09343886 0.02561351 0.029406108 -0.056289688
-0.05992332 -0.11354886 0.057752337 0.025277596 0.063018486 0.034963988 0.020174028 0.09211057
-0.0029642815 0.0068896003 -0.09081018 -0.060657132 0.11835914 0.068290055 -0.06295848 0.10124997
0.12715785 -0.11068252 0.07700696 0.10515521 0.07210149 0.12849131 -0.0828331 -0.018393273
0.07135912 -0.0019176427 0.009509594 0.07122595 -0.110909 0.08172765 0.107783504 0.053387336
0.024555346 0.008186261 0.12843584 -0.061422855 0.055094212 0.03285325 -0.07426008 0.10838069
0.021114672 -0.077072404 0.05660255 -0.066329844 -0.06856253 0.056841195 -0.08957513 0.0014697489
0.083031476 -0.04487362 0.048286177 -0.016040722 -0.10642741 -0.10677358 -0.06372195 -0.12023654
