cluster-trace-microservices-v2022/workload_prediction/outputs/models/best_model.pt (torch, 703093 bytes, 42 tensors)

lstm.weight_ih_l0 f4 [256, 2]
00000000: adb6 923d c5ed c7bd 0e6e a33d 3b5f b1bd
00000010: bcf9 a2bd c9a1 83bd c058 dabd 3fe0 ebbd
00000020: f092 e7bc fd65 8cbc 5e7b 5bbd 8d52 693d
00000030: 75be f83d 9912 b53d 9e5e 083d a837 d3bd
00000040: e694 5bbd 6886 493d 9156 c43d 3c55 2f3d
00000050: 8bdc 6e3b fab3 e2bd 9de3 f23d dc3c 85bd
00000060: 9fd0 da3c 785f 11bd eb9a d83d 082d b83d
00000070: 6ac6 973d 87ed bfbd b139 6abc 6fc8 9fbd
00000080: 59e5 09bd 4a9b dbbc 6bee c9bd 8903 9abd
00000090: df5e a4bc 36c2 9bbd 5d11 b43d 4daa b1bc
000000a0: 336b 6e3d 3d53 62bd 3c59 65bd 7590 91bd
000000b0: dd83 b8bd 0388 11bc 5130 d9bd 4d66 20bd
000000c0: 0b3f b5bd 01bf 14bd d0fe a5bc 7c7b ad3d
000000d0: 8bb6 26bc 1d43 b83d 231f 673d 45e1 c2bb
000000e0: 16fb 0cbd 4c53 b0bd 36dd 9f3d 718a a03d
000000f0: 0d64 0c3e dae9 48bd 3adb 493d 8b0f cd3d
00000100: 43aa e4bc 520a 94bd eb26 003e e372 d23d
00000110: a2f8 483d c9ff bd3c 9e13 cf3d d278 943c
00000120: 3321 2e3d 3305 e33d 8064 9f3d 424e a9bd
00000130: af0d c43c c74a c3bd ce1e c63d 4fb9 aa3d
00000140: d854 84bd c3a3 8dbd 54a9 cbbc 4db8 9cbd
00000150: 442a 893b b89e b63d b36d 9fbd 16b0 ad3a
00000160: 19c5 c2bd 6406 b43c efd6 953d a499 5f3d
00000170: 1c7c 4bbd 054f ee3d 296d c3bd ff80 6c3d
00000180: 028f 923d 0019 49b9 c7b8 9b3d 2de3 68bd
00000190: e4d2 333d 2d55 bfbd 12a5 ef3d 5632 c33d
000001a0: afac 943d 51a9 0b3e 5f24 a9bd dccb ff3d
000001b0: 24ef 063e cefb 7e3c 656d a4bb 97bc 083e
000001c0: dbff f23d f9e2 d53d 3c89 d23d 5bad b63d
000001d0: 63b7 f6bd d3b0 94bd e5a7 8f3d 1c8c 043e
000001e0: 0a10 ee3c dac3 db3c 5a4d 2e3d e00b a3bd
000001f0: 3649 913c 7314 c5bc 03ee b6bd 0e84 cd3c
00000200: a625 78bd 2046 74bc 4168 05be ec09 a6bd
00000210: 1c1e 733d 1a3a afbd 033a 8b3c 8d2e d5bd
00000220: 8212 b93d eae9 a3bd 93e9 523d 4012 b2bc
00000230: db6e cdbb c8d8 d13d b0dc be3d 4175 a9ba
00000240: c0c3 833d d9f3 043e ddca d53d 58cf 983d
00000250: 6990 da3d 4f4a 9b3d ce77 013e 599e f93d
00000260: e9bc 74bd c933 8f3c 87a3 b3bd 98d9 7f3c
00000270: 33af febd 8994 953d 8560 87bd 7702 9d3c
00000280: a692 5a3b 865c 873d 6041 e3bc bcdb 7cbd
00000290: 3cb3 ca3d e330 bdbb 9933 acbd 18e1 66bd
000002a0: b409 e53c 0fe4 bb3c 191f c23b 0096 1f3d
000002b0: 9ee2 0f3d 1df0 923d c8bb 7cbd b3e4 943d
000002c0: b201 c7bc 7505 86bd 473b 853d 9e0b bd3b
000002d0: b4e0 87bd f599 403d 9bd2 ad3b 1a18 8fbd
000002e0: f9e5 dfbc ab94 e13c 389b 4e3d 8256 dc3d
000002f0: 0046 013e 5903 023e 4aa2 f5bd 937f 4e3d
00000300: ab90 02be a285 5e3d 412c c33c 6d71 31bd
00000310: 9f65 233c cc57 97bd 9aee ef3d 0044 b93c
00000320: 59bb 9639 96bb 93bd 6e2a 873d bcb5 c53c
00000330: b48e 413c d7ce 553d fa39 323d d67b ee3c
00000340: 2812 3d3d 6b5e 3ebd c967 5ebd 44ee c3bd
00000350: d09d 9d3c 8912 65bd 9683 c13d b556 e63d
00000360: c73d 0e3e c967 a43d f4d8 e33d 6a75 073e
00000370: d3fb e5bd 7857 743d 73e1 47bd 3c55 b33d
00000380: c9b1 8cbc a537 4e3c 4a05 9ebc c31f 8ebd
00000390: d037 f2bc ca3b d93c 49dc bd3d 531a 80bd
000003a0: 5610 8d3d 3a87 933d 156d 87bd 8655 26bd
000003b0: c420 75bd 623a 95bd 6519 5e3c 74d9 88bd
000003c0: ec95 90bd ea51 19bd d478 9fbc e261 0c3e
000003d0: 3f9b 61bd 9290 d43d 0c2d 943d 015f 093e
000003e0: c3a1 05bd 5438 38bc 2f3c cfbd 47fc 3dbd
000003f0: 5b1f ac3d 53bd 2c3d 8dc0 3bbd 02b6 3dbd
0.07163749 -0.09762148 0.07979976 -0.08660742 -0.07957789 -0.064273424 -0.10661459 -0.11517381
-0.028268307 -0.017138476 -0.05358445 0.056963492 0.12145702 0.08841438 0.03329336 -0.1031335
-0.053608797 0.049200445 0.09586824 0.042805895 0.0036447372 -0.11069484 0.1185982 -0.06505749
0.026710806 -0.035491437 0.10576423 0.08992964 0.07410891 -0.093714766 -0.014295981 -0.078019015
-0.03366599 -0.026807446 -0.09859928 -0.075202055 -0.02006477 -0.07605402 0.08792374 -0.021687651
0.058207702 -0.055255163 -0.055993304 -0.07107631 -0.09009526 -0.008882525 -0.10604919 -0.03916006
-0.08849915 -0.036314968 -0.020263106 0.084708184 -0.010175358 0.08997176 0.05642618 -0.0059472644
-0.03441914 -0.086096376 0.078058645 0.078389056 0.13710041 -0.049051143 0.049281336 0.1001273
-0.027913218 -0.07228531 0.12514846 0.10275819 0.04906524 0.023193257 0.101111636 0.018124018
0.04251213 0.11084976 0.07782841 -0.082668796 0.023932306 -0.09535747 0.09673844 0.08336126
-0.06461495 -0.06916001 -0.024861015 -0.0765234 0.0041859467 0.08916992 -0.07784595 0.001325133
-0.0951025 0.021975704 0.07316386 0.054589882 -0.049678907 0.116361655 -0.09542305 0.057740208
0.07156183 -0.00019178167 0.07603603 -0.056857277 0.043902293 -0.09342418 0.117014065 0.09531085
0.07259499 0.13638808 -0.0825889 0.12490055 0.13177162 0.015562965 -0.0050179237 0.13353191
0.11865207 0.10443682 0.10280082 0.08919784 -0.12046697 -0.07260289 0.07014445 0.12944072
0.029060382 0.026826788 0.042554237 -0.07961249 0.017735105 -0.024057603 -0.08932116 0.025087383
-0.06058278 -0.014909297 -0.13028051 -0.08107361 0.059354886 -0.08556004 0.016995436 -0.104092695
0.09036733 -0.080036 0.051492285 -0.021737218 -0.0062693185 0.10246426 0.093194366 -0.0012928621
0.06433821 0.12983645 0.10439084 0.07461423 0.10672075 0.075825326 0.12643358 0.121884055
-0.05975047 0.017480748 -0.08771425 0.015615843 -0.1243576 0.073037215 -0.066102065 0.019166214
0.003335157 0.06609444 -0.027741134 -0.061732993 0.098974675 -0.00577365 -0.08408279 -0.05636701
0.027958728 0.022935895 0.0059241173 0.03896141 0.03512823 0.07174704 -0.06170252 0.072701834
-0.0242928 -0.065440096 0.06505447 0.005769207 -0.066346556 0.047021825 0.005304647 -0.06987019
-0.02733134 0.02753671 0.050440997 0.107586876 0.12624359 0.1269659 -0.11993845 0.050414633
-0.12750499 0.05432666 0.023824813 -0.043321062 0.009972959 -0.07389793 0.117154315 0.022615433
0.00028749814 -0.072135136 0.0659989 0.02413451 0.011813808 0.05219921 0.043512322 0.029111784
0.046159893 -0.046476763 -0.054298196 -0.0956693 0.01924029 -0.05592588 0.09448926 0.11247007
0.13890754 0.08027608 0.11125365 0.13228384 -0.11229672 0.05965373 -0.04879899 0.087564915
-0.017174618 0.012586509 -0.019289631 -0.06939652 -0.02956763 0.026517767 0.09270532 -0.06255021
0.068878815 0.07203527 -0.066126026 -0.040608905 -0.0598457 -0.07286526 0.013555859 -0.06682101
-0.07059845 -0.037431635 -0.019466795 0.13709214 -0.055079695 0.10379137 0.072351545 0.13415147
-0.03262497 -0.011243898 -0.10118901 -0.04638317 0.08404418 0.04217274 -0.045837928 -0.046316154

lstm.weight_hh_l0 f4 [256, 64]
00000000: de0b ccbd e484 08bd 1051 ca3d ea89 ac3d
00000010: dae5 d3bd e4e4 da3c 3d69 723d f12a 0abd
00000020: a802 1a3d 516b 933d 9f28 26bd 8585 763d
00000030: e5b7 33bb 89b3 b83d af20 debd 6b50 06be
00000040: 5cf0 a33c 57be 943c b46f 913d bdf8 c2bc
00000050: bda4 d63d b62d c93d 58ea c4bd db1b 9a3d
00000060: 136a 1f3d 58cf 86bd 04cf b73d a9b7 e33d
00000070: fdce e7bc 49fd 903c f27d eebd 9573 013e
00000080: 13be 03bd d12c 9fbd 1b24 9bbd 64f5 a0bc
00000090: b48b a73c 3e0f a9bd 30a9 813d 1644 dd3c
000000a0: f3c7 3d3d 9e93 83bc c8c1 c2bd 738f 64bd
000000b0: a30c e3bc 66c0 b43d 4e7a f0bd 6b4a ca3d
000000c0: a2ab 09bd 4802 313d 454f 21bd b217 273d
000000d0: 6c4d bc3d 57cf a03d 6cb0 c43c 909f ecbc
000000e0: d283 b83d 05ff dcbd 0f1e 0b3e 1c14 74bd
000000f0: 3e37 b83c 6ab9 713d 7f6b 3d3d 7507 113d
00000100: 9491 d23d ca2f b2bc 2671 433c 85d0 58bd
00000110: 0549 a4bd ee4c 44bd bbdc 0b3d 176b a13d
00000120: 9e51 89bd db78 80bc f35f 85bd 2a17 58bd
00000130: 2c89 2dbd 965e 733c dfaf 8f3d 9986 debd
00000140: b5ae d4bd 13cb eabd c2e8 483d 9981 88bc
00000150: 34a6 9ebd 8500 f1bd a584 0abd 8de3 7abd
00000160: e848 7abd 3a56 6dbd 6f02 ec3d 252a a33c
00000170: 3162 dbbd 9703 94bb ac0f 4ebd 4738 36bc
00000180: 5377 a3bd 3753 b93d c7f6 cfbd 59b8 ef3b
00000190: ee5d 83bd 7ba8 233d 3e4a 5f3d 715e 9a3c
000001a0: 86e0 c33b e6de b63d c076 a7bd 9d2c 223d
000001b0: 8d90 acbd 3606 95bd 1433 c63d bcee 323d
000001c0: f70b 7bbd e8f8 b23c 439f 963c e584 8e3d
000001d0: 2adb 63bd 3d8a b93d ae12 433c d662 183d
000001e0: 98d8 b33c 45e6 43bd 4d39 a83d ce6b 9fbb
000001f0: aa4e c7bd 6263 ae3d 9a27 303d c08e cd3d
00000200: e2e2 77bd 0381 763d e348 2fbd 99ec b43d
00000210: 5a53 b83d abec 70bd 4700 aabc d26c 2bbd
00000220: db71 a6bc f64c 823d 13af 1dbd 9cae e4bd
00000230: ebf4 92bd bff5 94bd 0aed b53c 7d36 ffbd
00000240: 4bca 4e3d c4f3 b8bd 81a3 803d a2e0 8fbc
00000250: 1d26 acbd fe13 af3d 28f7 e0bc 3433 b13d
00000260: 8cd5 8a3d 1830 28bd 4d03 273d 9d59 d23c
00000270: 6708 b13d af32 03be fb1b e3bd 674a a73d
00000280: bce9 cdbd 614d ba3d efe0 18bd 9643 02be
00000290: a7bc 263c 68e9 d53b 7102 db3d bbcb a7bd
000002a0: b354 cfbd 56c0 bd3c 4360 713d 1aae 6bbb
000002b0: 7b40 c93d 78df edbc effc 0c3d d529 f6b9
000002c0: aa92 993c de39 3ebd 4c03 d93b 171e b1bd
000002d0: 98ff c03d 1721 723d 16be 333d 916f 23bd
000002e0: f640 9c3c 28e8 bdbc ded6 3d3c 16d2 0bbb
000002f0: 2d63 e3bc b651 01bc 3dc1 cbbd cc8a a33d
00000300: 5570 f4bd 63a1 8bbd 3e6c 62bc 9691 b13d
00000310: f082 d9bd 2f14 83bd db10 65bd b6d4 c7bd
00000320: d2f3 f43d 3c48 6f3a 26fe 09bd d9ea 9cbc
00000330: da25 f0bd bc43 87bd 157b c93d 920e dabd
00000340: 775d b3bd 2d3c 823c c8a2 ac3b 4ca5 693d
00000350: d97f c43c 1875 b9bd d66c 40bc 20e2 743d
00000360: 6f18 d63d 9802 9dbd 2134 afbd 11e5 3fbd
00000370: e519 9a3d 47d7 983d d89c 3ebd fe19 8bbd
00000380: 3ad2 8bbd 0c26 0bbd 0244 2e3d e057 de3d
00000390: 7ddf fb3c 05eb a4bc 810f ddbb 2170 4c3d
000003a0: eb74 23bd 4a43 803d 654e 9abd 4faf c8bd
000003b0: 5aab ad3d a4cc c7bc 7707 a6bd 8181 12bd
000003c0: d2b0 b8bd 4514 1d3d cedb 6fbd 953c 1e3d
000003d0: 8c7f 12bc fba6 ea3d b313 e7bd ae08 843d
000003e0: 01d3 adbd 8f91 533c 9ae8 343d 10a2 c9bd
000003f0: 9629 e9bd 4322 f7bd 92c6 c23d 7510 e93d
-0.09963201 -0.03332986 0.09878743 0.084247425 -0.10346575 0.026720472 0.059182394 -0.03373236
0.03760019 0.07198203 -0.040566083 0.060185928 -0.0027422842 0.090186186 -0.10846078 -0.13116615
0.020012073 0.018157167 0.07101384 -0.023800248 0.1048064 0.09823172 -0.0961501 0.07524844
0.03891952 -0.065825164 0.08975032 0.11119015 -0.028296942 0.0176989 -0.11645116 0.12641747
-0.03216369 -0.0777222 -0.07575246 -0.019648261 0.020452358 -0.0825486 0.06331098 0.027010005
0.046333265 -0.0160616 -0.09509617 -0.055800866 -0.027715987 0.088257596 -0.11742078 0.09877475
-0.033610947 0.043215066 -0.039382238 0.040794082 0.091944546 0.07852047 0.024009906 -0.02888468
0.09009518 -0.107908286 0.13585685 -0.05958949 0.022487279 0.059014715 0.046245094 0.035407502
0.10281673 -0.021751303 0.011928832 -0.052933235 -0.0802174 -0.04792493 0.03414605 0.07881754
-0.0670502 -0.015682628 -0.065124415 -0.052756466 -0.042367145 0.014854094 0.070159666 -0.10865516
-0.10384885 -0.114645146 0.0490501 -0.01666336 -0.077465445 -0.11767677 -0.033817906 -0.061252166
-0.061104685 -0.05794356 0.11523902 0.019917557 -0.10712088 -0.0045170295 -0.050307915 -0.011121816
-0.07981744 0.09049075 -0.10154491 0.007315677 -0.064144 0.039955597 0.054514162 0.018843861
0.005977693 0.08929233 -0.08176947 0.039593328 -0.084260084 -0.07276575 0.09677711 0.043684706
-0.061290707 0.021847203 0.018386489 0.06958941 -0.055628933 0.0905957 0.011906309 0.037203632
0.021953866 -0.047827024 0.08214054 -0.0048651462 -0.09731801 0.085150495 0.043006517 0.10036993
-0.060519107 0.06018163 -0.04279412 0.0883419 0.09000273 -0.058819454 -0.020752085 -0.041851826
-0.020317962 0.063623354 -0.038497042 -0.111661166 -0.07175621 -0.07273435 0.022207756 -0.12461565
0.05048589 -0.090308696 0.06281186 -0.017563168 -0.08405707 0.08548735 -0.027461603 0.08652344
0.06779012 -0.04106149 0.040774632 0.025677497 0.08644181 -0.12812303 -0.11089321 0.08168488
-0.10054347 0.0909679 -0.03732389 -0.12721094 0.010176814 0.0065280683 0.10693825 -0.081931554
-0.10123577 0.023163002 0.058929693 -0.0035961927 0.09826752 -0.029037222 0.034420904 -0.00046951944
0.018746693 -0.046441905 0.0066227075 -0.08648317 0.09423751 0.05911359 0.043882452 -0.03990132
0.019073945 -0.02318199 0.011586873 -0.0021334938 -0.027757252 -0.007893017 -0.09948967 0.07985458
-0.11935488 -0.068178914 -0.013819752 0.086703464 -0.106206775 -0.06400334 -0.055924278 -0.09757368
0.119605675 0.000912789 -0.03368964 -0.019154953 -0.117259696 -0.06604716 0.09837929 -0.1064731
-0.087580614 0.015897835 0.0052684285 0.057042405 0.023986744 -0.09055537 -0.0117446985 0.059785962
0.10453879 -0.0766651 -0.08554865 -0.046849314 0.0752447 0.07462936 -0.046536297 -0.06792067
-0.06827207 -0.03397183 0.042545326 0.108566046 0.030746216 -0.020131597 -0.006746233 0.049911622
-0.039906424 0.06262834 -0.07534484 -0.097990625 0.08479948 -0.024389572 -0.081068926 -0.035768036
-0.09018101 0.03834941 -0.05855923 0.038631994 -0.008941542 0.1145763 -0.11283054 0.06446968
-0.084875114 0.012913122 0.04416714 -0.09845364 -0.11384885 -0.12067082 0.095105305 0.11380092

lstm.bias_ih_l0 f4 [256]
00000000: 88bf a6bd a899 1dbc bdd2 073c 9db7 c93d
00000010: 6ca0 eabd e443 aebd 71f3 eb3a fef1 573d
00000020: 32cb b53d cdcd b43d ec27 a73d 6f0a 0ebd
00000030: b3e8 48bd b5ba 37bd 4001 22bb 674e 9b3d
00000040: 6252 d7bd 15e2 ebbd 4e38 01bc fb43 9bbc
00000050: 28dc c4bd 0b63 103e 7205 d4bd 4d3e 93bd
00000060: 9295 0dbd e6c1 b6bd 7346 ce3d 86f9 e73d
00000070: 406b d53d 99ef c1bd 53a7 9bbd 144d 9dbd
00000080: f13d 5f3d 3dbf de3d 8bad c03d 05a7 b63d
00000090: 3774 6e3d 2a1d 333d 6596 74bc 592e 6fbd
000000a0: 6fa8 a2bb 90ae 81bd 4b0b 9dbd f807 8e3c
000000b0: 6ca3 d03d ca76 99bc d935 5ebd e046 4b3d
000000c0: e76e cdbc c8b4 dfbc 0109 d4bd 8fb2 b3bd
000000d0: 8124 53bc 8f69 d13d 6a45 2a3d a7b3 cb3c
000000e0: e8b8 e0bd 2a98 bdbc 70df 20bd bbb9 16bb
000000f0: eb2e 763d 62ce b03d 7d31 d4bd fab5 b03d
00000100: 9fb3 d7bc aacc 8a3d c3f4 ffbc 3c4c 063d
00000110: 4b1f aabd 178e cabd 4992 cebc 2161 333d
00000120: 528f cebd ef89 7f3d 28a0 6abd cb34 bb3c
00000130: 193f c03d 11b1 bbbd 3151 d13d e9f7 b33d
00000140: b58b ae3d 5940 b13b d5a7 503d bcee 71bc
00000150: 3eed 853d be91 0dbc a51f 46bd 9827 45bc
00000160: f862 c7bd 4bd5 813d f952 863d 0d22 003e
00000170: ecc6 953d 6f38 6c3d 4c20 adbd 3d6e 51bd
00000180: 6314 adbd 7ea0 9d3c bb07 80bd ec57 a03b
00000190: 835b efbc 737d e23d bab0 d3bd 24da 38bd
000001a0: ba1c 023d bad4 183d d2f5 53bd fcaa 023e
000001b0: f8a6 76bd c7d8 a2bb ebcd 14bd 3a1a b6bc
000001c0: 2b7b d63d 88b7 b7bd 3549 cbbc bae0 053e
000001d0: 7a2b 003e b3b9 a73d 4267 9f3c 77b8 4abd
000001e0: 5439 dd3d e37b b53d 7911 4ebd 7cfc 5cbd
000001f0: 1ee2 36bd 7dc6 d73c 84b1 983d e893 28bd
00000200: 2a26 b5bc 2778 643d b5cf 36bd e6c9 0c3d
00000210: ca36 e03c ad06 c73b 9070 c0bd 6538 103d
00000220: ddbf a53d 00e5 fa3d 3822 5ebc bc96 06be
00000230: 5acf 0bbe 15cf fe3c 9004 e5bd 5084 8f3c
00000240: 7261 2bbc 97b6 9d3c 0113 af3d bc35 413c
00000250: 6517 833d 9dd7 bc3d 430e a6bd 9bb3 69bd
00000260: 1ef1 a3bd 92fa c4bd 9d97 a03d 4a1a 913c
00000270: 8a4a 8b3d 88a2 cb3c e700 9c3c 6a2c a23d
00000280: adbe d5bd b2ec 00be 116e df3d 3ac0 f2bd
00000290: b2d2 febd a67c 14ba 570a f13c bd14 ed3c
000002a0: 49c8 88bd 63b2 023d 8ddd e0bb c1c8 e53c
000002b0: 249b 94bd 4440 b73b f329 03be 97ed fabd
000002c0: 545a 853d b040 fdbc 315e fa3d 6f44 d53d
000002d0: e581 033e 047e bd3d 8868 adbd 5663 78bd
000002e0: 6048 333d f270 e3bd 74d7 723d 3004 80bd
000002f0: ab38 043e 68d1 acbd c580 b8bd 579b 41bd
00000300: 6b37 073e d7ec 82bd 0001 92bd bed4 c83d
00000310: 1831 3f3c 7222 eb3d 3afa 1fbc 0cff 85bd
00000320: 93ba 44bd 34a9 babd 0b51 18bc 9d90 bfbd
00000330: 50cf 0d3d da83 183d 67c8 50bd 720a 7f3d
00000340: 9986 cb3b 4b95 d1bd 3892 7bbd 75fa 79bd
00000350: c36d d23d ac89 c8bc 5df4 e63c 228a 2f3d
00000360: da18 b13c e6a6 39bd 037d 1f3d 1fc7 11bd
00000370: 7c02 24bd 4a09 a6bd 802b 5c3d 2489 7dbd
00000380: 59d4 ddbc 4ac9 55bc 40c5 49bd c371 0dbd
00000390: 2554 4f3b c025 e4bc 8148 8e3d 1ac9 15bd
000003a0: 11cf 56bd 2a73 9f3d 7c8b 073d 469c 853c
000003b0: 30a8 b0bc a2ca c93d aa6e 003e 5a9f d53d
000003c0: 8c84 b93d 80f2 82bd 19d2 79bb a752 e6bc
000003d0: 20cc c5bd 3837 85bd ab02 863d 6ce4 0e3e
000003e0: f86b ba3b 70c6 81bd 3ba4 55bd 24e2 0d3d
000003f0: 4841 f7bc 22f9 e2bd 44ef aebd 800f a23c
-0.081420004 -0.009619154 0.00828999 0.098494746 -0.11456379 -0.08509043 0.0018001628 0.052721016
0.08876647 0.08828316 0.08161911 -0.03467792 -0.049050044 -0.044855792 -0.0024719983 0.075833134
-0.1051376 -0.11517731 -0.007886959 -0.018953314 -0.09612304 0.14100282 -0.10352601 -0.07189617
-0.03456647 -0.08923702 0.10072031 0.1132689 0.10420847 -0.09469528 -0.07600274 -0.07680717
0.05450243 0.108763196 0.09408101 0.08918575 0.0582163 0.043728985 -0.014928435 -0.05839381
-0.0049639265 -0.06332123 -0.076681696 0.017337784 0.1018742 -0.0187334 -0.054250572 0.04962814
-0.025077296 -0.027307883 -0.1035328 -0.08774292 -0.012887121 0.10225212 0.041570105 0.024865938
-0.10972768 -0.023143847 -0.039275587 -0.0022998888 0.06010334 0.086331144 -0.10361002 0.08628459
-0.026330767 0.06777318 -0.031244641 0.032787547 -0.0830675 -0.09890383 -0.025216239 0.0437938
-0.1008593 0.062387403 -0.057281643 0.022852322 0.09387035 -0.09164632 0.10220564 0.087875195
0.08522741 0.005409282 0.050941307 -0.014766391 0.06539391 -0.008640705 -0.048370022 -0.012033366
-0.09735674 0.063395105 0.065587945 0.1251299 0.07313332 0.057671007 -0.08453426 -0.051130522
-0.08451154 0.019241568 -0.062514745 0.0048932936 -0.02921844 0.11059084 -0.10336442 -0.04512991
0.031765677 0.037312247 -0.051748104 0.12760538 -0.060217828 -0.0049696895 -0.03632919 -0.022229303
0.10472711 -0.08970553 -0.024815181 0.13074008 0.12516585 0.08189716 0.019458417 -0.049492326
0.1080195 0.0886152 -0.050309632 -0.053951725 -0.044649236 0.026339764 0.074557334 -0.04115668
-0.022112925 0.05577865 -0.04463168 0.034372233 0.027369875 0.006073794 -0.093964696 0.035210032
0.08093236 0.122507095 -0.013557963 -0.13143438 -0.13653317 0.031104604 -0.11182511 0.017519146
-0.0104602445 0.019252105 0.085485466 0.011792596 0.064009465 0.092208125 -0.08108189 -0.05705605
-0.08004974 -0.09618105 0.07841418 0.01771273 0.068013266 0.024857774 0.019043399 0.079186276
-0.10436759 -0.12590292 0.109096654 -0.118530706 -0.12442531 -0.0005664326 0.029423876 0.028940553
-0.06678826 0.031908404 -0.0068623484 0.028049828 -0.07256153 0.005592378 -0.12808971 -0.12252348
0.06511369 -0.030914634 0.12224997 0.10413443 0.1284252 0.09252551 -0.084672034 -0.06064161
0.043770194 -0.11105527 0.059287503 -0.06250799 0.12912242 -0.084383786 -0.09008936 -0.047267284
0.13204734 -0.0639283 -0.07129097 0.09806202 0.01166942 0.11481179 -0.0097642485 -0.06542787
-0.048029494 -0.09114304 -0.009296666 -0.09353755 0.034621537 0.03723512 -0.05097237 0.06226582
0.0062111137 -0.102335535 -0.061418742 -0.06102987 0.10274842 -0.02447971 0.028192693 0.042856343
0.021618295 -0.045325182 0.03893758 -0.035590287 -0.04004143 -0.081072405 0.053752422 -0.061898366
-0.027078794 -0.013048479 -0.049260378 -0.03453232 0.0031635847 -0.027850032 0.06947423 -0.03656874
-0.052443568 0.07785638 0.033092007 0.016309869 -0.021564573 0.09853102 0.12542215 0.104307845
0.090584844 -0.063939095 -0.0038119613 -0.028115584 -0.096580744 -0.06504673 0.065434776 0.13954324
0.0056891404 -0.06336677 -0.052158576 0.034639493 -0.030182496 -0.110826746 -0.0854173 0.019782782

lstm.bias_hh_l0 f4 [256]
00000000: 1a07 153d ae74 df3d ddf4 833b de26 e3bd
00000010: d3f4 2ebd 0621 213c 0205 7c3d 7229 983d
00000020: be49 f83d 053b e73d 90f2 1ebd 852b 0b3e
00000030: c4e6 20bc d6d5 f2bc 399f 393c 54c2 053e
00000040: 44e4 d33d 9a13 efbd e60f f5bc 7fbe 8b3d
00000050: 5f76 a6bd a125 b83d 84ea 35bc 2b88 943c
00000060: 1a25 493c d60e b03d f40c ffbb 3a5a 923b
00000070: 04c2 1f3d d2d8 3fbd 2101 9e3d 7330 dfbd
00000080: dc3b 3fbd 5664 85bd f23a 8e3d 02f5 aebc
00000090: be71 af3c 1444 a7bc 82cd 773d 215a 1ebd
000000a0: b0bf ab3d 2938 7d3d a238 eabb f8f3 b6bc
000000b0: 374e 0a3e 6a36 a1bd 2e53 39bd 3005 b73c
000000c0: 8556 7abd 6a54 a0bc 7982 16bd 9367 103e
000000d0: f075 26ba 04f2 b2bc 11bc a2bc c05c 723d
000000e0: 5ea9 863d 54a8 213d b44f ae3d e639 4abd
000000f0: b6b4 3dbd 50cd d2bd 7844 d23d 94d3 9b3c
00000100: 4731 823b 24f4 bebc d7c8 c53d fde5 bfbc
00000110: 6dad 0d3d 5524 e43c 76ac ee3c add0 1c3d
00000120: 6ef6 103e e21a e2bd 96bd 853d 7736 003d
00000130: 35c1 e73d 1823 a13d 72f2 e73d 0805 31bd
00000140: 9aa8 de3d b442 a8bd c91a dabc 20bc a43c
00000150: 96bb eb3d 04d9 5c3d d552 a3bd a20a a4bd
00000160: f892 fa3d 1e7d 2f3d 53e2 e83d 8324 0cbd
00000170: 04cb b6bc cd63 263b 5c21 0ebd 14f5 9cbd
00000180: b64d cd3b 2482 713c d367 933d 7756 9cbc
00000190: 7264 fa3d 0a18 f63d 4032 a8bb 2346 34bd
000001a0: 2d9a cc3d f64e c33d 27b0 03be 08ba f53d
000001b0: 2840 a8bd e31c b23d d939 013e a02f e33d
000001c0: 57fa aa3c 0111 433d 91f3 983c 02cb 55bd
000001d0: 0076 003e 187c 893c a5d4 553d 3c40 063e
000001e0: ce4c 31bd db12 2d3c ea34 d0bc f849 c8bc
000001f0: 5992 053d 6e88 843d e2b0 c63d 6d1b 91bd
00000200: 0119 0dbe 8afc acbd 9576 93bd cd22 eebc
00000210: c150 62bd 0658 6cbd 1ec0 08be f2d4 053e
00000220: 8fa5 ee3c 2a6a b13d ca6f a73d 5df7 873c
00000230: 3f4e 703b 74d8 cdbc b46f f7bc 026c babd
00000240: 0292 4bbc 502e b5ba bb54 c73d 9bdb 79bd
00000250: 3520 fc3b b1c6 a93d 44fb a33d e311 12bd
00000260: a324 4abd 3e38 4c3d 2052 08be b4d9 ee3d
00000270: ffa2 80bd daa1 85bd a957 e4bd 8ed5 acba
00000280: 4093 d3bd c80d d0bd deec acbc 93cc 61bc
00000290: f37a cabd 2af8 d3bd 115f 7e3d fc14 003e
000002a0: 5e7f 013e 035f ecbc 04e5 52bd a0e3 b83d
000002b0: ba4d b4bd 8a44 af3d c914 9d3d 0d7d 363c
000002c0: 108b d13d 3a51 853d 9c61 0e3e 688f cebc
000002d0: 0a92 db3d c710 27bd 79fa c43d d586 92bc
000002e0: caae e9bd 764f 463d b809 39bd 469e afbd
000002f0: 13ac b33d 176d f7bd 256a 043d 8e25 9f3d
00000300: beff 013e 0e4e b43c 8f8a 67bc af31 92bd
00000310: 06d2 eebd c090 973d b2d3 4abc c72d 413d
00000320: bbbe 2e3d 4e93 d9bd 2fe0 cebd fa9b 113d
00000330: 0ade a2bd 10ca adbd 838f 79bd 5658 823d
00000340: 5a0d 403b cf0f e23a 55c8 fc3d 91d2 ceba
00000350: 84bd c13d d5cc cbbd 0117 7a3c d27a a83d
00000360: 41c4 c93d 9778 c13d c1a7 3dbc c044 f43d
00000370: 4ef2 b73d 639f b7bc 9ff0 01bd cd4b 8f3c
00000380: 1023 96bd 4c63 db3d 274b e83d 9aae bdbd
00000390: 77fd 8abd f48e e73d 8048 fa3d 277d c73c
000003a0: b47e b73d abe5 80bd 15e6 56bd 6be5 b93d
000003b0: 41e8 a3bd 38b0 103e 9360 d8bd c4c5 c9bd
000003c0: 8c7c 0abd c218 0f3d d0f2 96bd 5dfb d03d
000003d0: 1fbb 3ebc 2161 013d e370 583c 3b0b ff3d
000003e0: 5b1a 873c d2b1 fc3c 0057 583b a6f9 983d
000003f0: c5b7 273d 63ce 10bd 50c5 633d c03e 703d
0.036383726 0.10910927 0.0040269927 -0.11091398 -0.04271395 0.009834534 0.061528213 0.0742978
0.1212344 0.11290554 -0.038805544 0.1359082 -0.009820644 -0.02964298 0.011329466 0.13062412
0.103462726 -0.116736606 -0.029914808 0.068234436 -0.08128046 0.08991552 -0.011103276 0.018131336
0.012276912 0.0859658 -0.0077835266 0.0044663223 0.039003387 -0.046837635 0.07715059 -0.10897913
-0.046687946 -0.06513278 0.06944837 -0.021357063 0.021416541 -0.020418204 0.060498722 -0.038660172
0.08386171 0.061821137 -0.0071478644 -0.02233313 0.13506399 -0.07871707 -0.045245342 0.02234134
-0.061117668 -0.019571502 -0.036745522 0.1410201 -0.00063499715 -0.021843918 -0.019865068 0.059170485
0.06575273 0.03946717 0.08511296 -0.049371623 -0.046314918 -0.102930665 0.10266966 0.019021787
0.0039731595 -0.023309775 0.09657448 -0.023425097 0.03458922 0.027849356 0.02913497 0.038284946
0.14156505 -0.11040284 0.06530301 0.03130194 0.11316148 0.07868022 0.1132554 -0.04321769
0.10872002 -0.082158476 -0.0266241 0.020109236 0.115103886 0.0539179 -0.07974783 -0.080098405
0.12235063 0.04284393 0.11371293 -0.034214508 -0.022313602 0.0025389076 -0.034699783 -0.076639324
0.0062653674 0.014740501 0.07197537 -0.019084198 0.1222619 0.12016304 -0.0051329434 -0.0440122
0.09990344 0.09536545 -0.12860166 0.11998373 -0.08215362 0.08696916 0.12619723 0.11093068
0.020871324 0.047623638 0.018670829 -0.052195556 0.12545013 0.016782805 0.052204747 0.13110441
-0.043286137 0.0105635775 -0.025415856 -0.024449334 0.03261027 0.064713344 0.097017065 -0.07085309
-0.1377907 -0.084466055 -0.07200352 -0.029069329 -0.055252794 -0.057701133 -0.13354537 0.13069513
0.029131679 0.08662827 0.08175619 0.016597444 0.0036667732 -0.025127627 -0.030204631 -0.09102632
-0.012424948 -0.0013823006 0.09732958 -0.061000448 0.007694269 0.082898505 0.080069095 -0.03566159
-0.049351346 0.049858324 -0.13312578 0.11662617 -0.06281089 -0.06525011 -0.11149532 -0.0013186203
-0.1033082 -0.101588786 -0.02110904 -0.013781684 -0.09886732 -0.10350068 0.06210238 0.12508005
0.12646243 -0.028853899 -0.051487938 0.09027791 -0.08803888 0.08557995 0.0766998 0.011138213
0.10231602 0.06509633 0.13904423 -0.025214866 0.10721214 -0.040787484 0.09618086 -0.017886559
-0.114102915 0.048415624 -0.045175284 -0.0857511 0.08773055 -0.12081354 0.03232779 0.07770835
0.12695214 0.022009876 -0.014132156 -0.07138383 -0.116611525 0.07400656 -0.012379574 0.047162797
0.042662363 -0.10623799 -0.101013534 0.03554914 -0.07952507 -0.08485806 -0.06092788 0.06364505
0.0029304833 0.0017247143 0.12342898 -0.0015779306 0.09459975 -0.09951178 0.015264274 0.08226551
0.098518856 0.09446829 -0.01157564 0.119271755 0.08981763 -0.022414869 -0.031723615 0.0174922
-0.073309064 0.10712299 0.11342459 -0.09261818 -0.06786626 0.11306563 0.122208595 0.02435167
0.089597136 -0.06293806 -0.052465517 0.09076961 -0.08003283 0.14129722 -0.10565295 -0.09852174
-0.033810183 0.03493572 -0.073705316 0.10204194 -0.011641293 0.03158677 0.013210508 0.12453314
0.01649206 0.03084651 0.003301084 0.07469492 0.04094674 -0.035353076 0.055608094 0.058653593

lstm.weight_ih_l1 f4 [256, 64]
00000000: 43fa 863c b69b 3d3c aba9 edbd 3ef0 b03d
00000010: 8ed9 11bd 2124 51bd 59c2 b8bd ae07 3abc
00000020: 2722 a83d 346d 21bc 1f24 c83d 64c2 23bd
00000030: 2141 3d3d 80c8 96bd e79a 5dbd 8a5a d5bb
00000040: 6c75 c93d c8c5 d03d b195 e63d c3c0 27bd
00000050: 1a2a e63d 6a07 0a3d 0ce1 8bbd 8f9a b2bd
00000060: 0de0 fd3b 6bd4 bb3c d710 c6bc b447 683d
00000070: ccae c83d 0f46 5dbd fa8c 78bd 027e d8bb
00000080: b762 cabd d6a3 babd 0de0 e93c b933 613c
00000090: 2c01 86bd 04e1 acbd db88 c9bd 7a27 b73d
000000a0: 6892 31bd b8bb 273d 2309 353d ca20 ac3d
000000b0: eab7 91bd 3ed1 bebd dba9 803d 64c1 b4bc
000000c0: 1a66 153d 41f0 413d 2a94 a23c 72fb b5bd
000000d0: be0d b0bd de80 dbbd 2fc2 723d 0cfc e53d
000000e0: ad18 87bd faf7 d4bd 743e 663d 235f 6abd
000000f0: c28d e3bd 402d 7a3d 0319 2d3d 410e a6bd
00000100: 4032 30bd ff08 d13d 12fa 573d eb9f 393d
00000110: 33ad bc3d c7a3 b7bc 0a54 ccbb cf4d 63bd
00000120: 6530 72bd c457 fcbd ee00 603c 133c cf3d
00000130: 114b 813d 532f d63c 987a 2bbc 82d4 adbd
00000140: 18a5 b3bd c387 9bbd 9ffa 1d3c b481 cc3d
00000150: 5360 bc3c f3e0 f5bc 7e59 173d 19dd b7bc
00000160: 243f b7bd 41eb db3d c5c0 e0bc ab78 99bd
00000170: e376 bbbd 94ae f5bc ae50 c2bc e0d4 093d
00000180: 76de 4fbc 5a2b edbc 5c97 6cbd 03db 7c3c
00000190: f3c7 4c3d ed60 a33d ae4e 123d ede8 08bd
000001a0: e505 13bd 465b 463c 895d 60bd 0982 d2bd
000001b0: 52d7 fc3c 3457 f6bd 3075 1e3d b19a 8abd
000001c0: 7e98 58bd bf66 47bc b41e 23bd 85ec 02be
000001d0: 597b d0bd 7322 e8bd 4ec4 283b dc7e 6ebd
000001e0: ba38 e63d d728 ef3d 461c 3bbd 454b bb3d
000001f0: 63ab f13c 9d63 903b d3dd d5bd 2ba8 a7bc
00000200: 0f62 c33d a2fe bf3d 83da 01be 5a63 a5bd
00000210: 8b9a 723d 6146 363d 0bc7 1e3d fac6 d5bd
00000220: 6580 dc3b a267 cbbd 1e03 85bd e0c7 a4b9
00000230: 8c51 773d 81cb dabd 0814 9d3d 9fb9 cdbb
00000240: 869e c4bd d060 863d 35e5 56bd 3c3a f03d
00000250: d909 8bbd 82cb 88b9 6b46 503d ec02 e5bb
00000260: 19f5 85bd 32db 8bbd 7c49 633d dfc9 f1bc
00000270: 9641 153d 3667 573d 25f6 733d 1de6 1739
00000280: 5e9d a6bc 5dbb 993d 3e03 b33d b803 9dbd
00000290: 5f9c e8bd d414 f7bc 5186 cf3d 29d3 2b3d
000002a0: 4027 f93d 040f d53d 2692 c63d 5d72 21bc
000002b0: afb0 f3bd c23b db3c fd27 c3bb cb22 0f3c
000002c0: 5a45 833a 6957 963c 585c 9fbd c41e 133d
000002d0: 5696 3d3d e104 bfbc cdf5 24bd 25ca 48bd
000002e0: efa1 283d bcd1 873d e086 9ebd afdb 883c
000002f0: 6b23 e7ba 4c06 a2bd 17c9 b6bd 6ca7 653d
00000300: aba3 bdbd 91bc 4c3d b63b efbd d579 eb3b
00000310: 56a5 c8bd 1c25 083d e8ca 953b 217a 0c3d
00000320: 5717 c8bd bd62 55bc 6641 babd 515d adbd
00000330: d575 4b3d 7ed4 d2bd 34f0 d6bd c70f 6f3d
00000340: 43c0 273d ffe2 e0bb d157 f83a 668d 933b
00000350: 5de9 183d a3de e03d 73df a5bd d47c f43d
00000360: 310c e43c d8ad 853d e3bb c1bd c458 fbbb
00000370: 4bd6 43bd fed1 97bd 3563 ce3d 39b0 bd3d
00000380: 368a 21bd f2bf 04bd e649 dd3d e92c b23d
00000390: 7b91 9abd 6ce8 16bd 61f9 69bd 23eb 433d
000003a0: 9e25 213d 49cf 173d 311c ec3d 1d37 c63d
000003b0: 0bc6 be3d 57c8 e3bd 5ba7 ac3d 1063 a83d
000003c0: c2c9 e83d 97dc fb3d 487f 963c 5de0 d63b
000003d0: 925a 7c3d 4cb3 fbbd f266 f5bc 5cd2 b4bd
000003e0: 4a37 083d fa36 a03d 4be7 94bd 9b61 d03d
000003f0: 2687 02be ef53 493d cd81 423d d29d 1cbd
0.016476756 0.011572769 -0.11604627 0.086395726 -0.035607867 -0.051059846 -0.09021444 -0.01135437
0.08209639 -0.009852696 0.097725146 -0.039980307 0.04620469 -0.07362461 -0.054102805 -0.0065110372
0.098368496 0.10193974 0.1125902 -0.040955316 0.11238499 0.033698477 -0.06830034 -0.08720886
0.007747656 0.022928437 -0.024177952 0.056709006 0.09798965 -0.05402189 -0.06068132 -0.006606818
-0.098821096 -0.091132805 0.028549219 0.013745242 -0.06543192 -0.08441356 -0.09840556 0.089430764
-0.043352515 0.040950507 0.044198167 0.084046915 -0.07115157 -0.093172535 0.06282397 -0.022064872
0.036474325 0.047348265 0.01984604 -0.0888585 -0.08596371 -0.10717939 0.05926722 0.11229715
-0.065965034 -0.1039886 0.056211904 -0.057219636 -0.111110225 0.06107831 0.04226018 -0.081081875
-0.043016672 0.10206794 0.05272872 0.045318525 0.09212723 -0.022416962 -0.006235604 -0.055494126
-0.059128184 -0.123214275 0.013672097 0.1011888 0.06313146 0.026145613 -0.01046624 -0.08487798
-0.087717235 -0.07594254 0.009642272 0.099856764 0.02299515 -0.03001449 0.03695058 -0.022444295
-0.0894759 0.107382305 -0.02743567 -0.07493719 -0.09153535 -0.029990472 -0.023720112 0.03365028
-0.012687316 -0.028951336 -0.057761535 0.015433076 0.049995374 0.079774715 0.035719566 -0.03342526
-0.035894293 0.012106722 -0.054776702 -0.102787085 0.030864391 -0.120283514 0.038685977 -0.06767786
-0.052879803 -0.012170493 -0.039824203 -0.12785538 -0.10179777 -0.11334696 0.0025751772 -0.05822645
0.112412885 0.116777115 -0.04568126 0.09145216 0.029500669 0.004406406 -0.104427 -0.02046593
0.095401876 0.09374739 -0.12681012 -0.080755904 0.059229415 0.044500712 0.03876404 -0.104383424
0.006729173 -0.09931876 -0.06494735 -0.00031429436 0.060380504 -0.106833465 0.07669836 -0.0062782313
-0.096005484 0.06561434 -0.052464683 0.11729857 -0.06788988 -0.00026091567 0.050848406 -0.0069888737
-0.06540889 -0.068289176 0.055490002 -0.029515205 0.0364395 0.052588664 0.059560914 0.00014486206
-0.02033871 0.0750644 0.08740853 -0.07666725 -0.113579504 -0.030161299 0.10133041 0.041949425
0.121656895 0.10403255 0.09695844 -0.0098539265 -0.11898934 0.026761893 -0.0059556947 0.008736323
0.0010015175 0.018352227 -0.07781285 0.035918012 0.04628595 -0.023317756 -0.040273476 -0.049020905
0.041170057 0.066318005 -0.07740569 0.016706316 -0.0017634457 -0.07911357 -0.089250736 0.05606787
-0.09259733 0.04998452 -0.11681311 0.0071861544 -0.0979716 0.033238515 0.0045713075 0.03429616
-0.09770077 -0.013024029 -0.09094505 -0.08465064 0.04967292 -0.10294436 -0.10495034 0.058364656
0.04095484 -0.0068629975 0.001894707 0.00450294 0.037331928 0.109799646 -0.0809926 0.119378716
0.027837845 0.06527299 -0.09459665 -0.007670494 -0.047811788 -0.074131 0.10077516 0.092621274
-0.03943845 -0.032409616 0.10805111 0.08699972 -0.075472794 -0.03684275 -0.057122592 0.047831666
0.039342515 0.037062917 0.115288146 0.09678481 0.093151174 -0.11122196 0.08430358 0.0822202
0.11366607 0.122979335 0.01837124 0.006557508 0.061609812 -0.122900575 -0.029956315 -0.08829185
0.033255853 0.07822986 -0.07270678 0.10174867 -0.12746868 0.04915231 0.04748707 -0.038236447

lstm.weight_hh_l1 f4 [256, 64]
00000000: 9869 b2bd a406 0c3d fef7 0ebd 24ac a43c
00000010: a464 9dbd 1d38 d73b e0a2 dfbb fe23 34bd
00000020: fc3c 1c3c 7f96 bb3d 0010 533c 2a6e cabd
00000030: dcf0 95bc 1f67 a8bd 12be 12bc 0f55 d3bd
00000040: a8ae 563d 761d ccbd c19c f33d 8772 5f3d
00000050: 1806 8e3d 4775 22bc df3a 8d3d 7a0a a53d
00000060: 6736 903d 8b83 5b3d 57fd 72bd 8b25 d63d
00000070: fcc4 7e3d 7b64 7ebd 4a77 713d 08da 80bd
00000080: 1c66 b53c 4b95 11bd 6202 3abd 56eb 99bc
00000090: 01b3 c8bd c925 cdbd 8168 a1bd 51e4 a6bd
000000a0: 2311 ad3d 2319 a73d 2865 fa3d 7963 94bc
000000b0: 68fe 26bc 4e7b 94bd 2533 a33d 9ead a5bd
000000c0: 83c6 e2bd 0cfe 77bd eb39 86bd 7298 e93d
000000d0: 8a20 8bbd e18c 683d 5cca b3bd da27 ac3d
000000e0: c9e6 68bc 6c18 d23d 28aa 5a3d dddf 913d
000000f0: 9530 8d3b c995 363a 91b0 b13d c629 a43d
00000100: 867e 833d 373a 7abd 5f69 a03d 7741 b2bd
00000110: d858 533a 2e7b a63d b300 f83d 3ee3 e9bd
00000120: dd4f adbd 8c74 acbd ef00 dabb 6e3b d33d
00000130: 9a8c dcbc 48cf ea3d 302f 91bc f6b8 af3d
00000140: 387d c83d 562f bd3d 0c82 2dbb 1465 3bbd
00000150: 02f3 d6bc fefb e4bb cea5 1ebd a1df 32bd
00000160: 25d7 c0bd 0033 873d b84a 223d 2d15 913d
00000170: 5478 fbbd ddf5 553c 6b4a ce3c 43f9 01bd
00000180: cfb5 69bc f77e ce3d 3b0c 1abd a96a 863c
00000190: cebb dabc f779 d2bd f206 debc e552 56bd
000001a0: 3060 4dbd c5df 70bd d7b1 2dbd 7f40 36bd
000001b0: 74ed b9bd ee12 713d 3176 d83d aa7e b73c
000001c0: 5b65 a13d 0a63 65bd a5e3 d6bc 2808 043a
000001d0: b6a6 703d efa8 12bd dfe7 e13d 34c9 173d
000001e0: 178b 873d d2ce c9bd b364 fdbd 3f54 4b3d
000001f0: 6d02 863d f453 02bc b3bc c83d 77be afbd
00000200: 41c4 e93c 084d 3cbd 582e 9fbd 362e 583d
00000210: f33f 873d b500 fa3d 2d8f f7bd 1b67 9d3d
00000220: 0204 a4bd d8d2 2cbd d715 d1bd 7770 623d
00000230: f0e1 d8bd 7011 67bd ef5a 1fbc a968 e3bd
00000240: 55a4 b23d 609a c9bd 0947 d63d 9d3b d53d
00000250: 526e 693d ef44 cb3c 2f69 f03d 7eb7 233d
00000260: f12e ac3d b406 803a af3f b6bd b3c6 a93d
00000270: 006a 7abc b8fb 31bd e890 28bd 1dcb bb3c
00000280: 957e afbc fdd6 e2ba d9f2 1c3c e1af 37bc
00000290: ba0f 36bd b4d8 d03d 123a 0ebd 0e4d 35bc
000002a0: 7686 593a a0af b03d 9825 83bd dfef d2bd
000002b0: 9f8d 8bbc 0e99 7bbc 4fee 323d b741 c2bd
000002c0: f2cb 60bc 5820 163c b28f b63c 2a6f cebd
000002d0: 8807 0cbd 1fd1 b73c 65a2 da3d 4cae d0bd
000002e0: 2bf0 bfbc 5f70 193b 9d78 9ebd 1e7a d4bd
000002f0: 5e5c 2ebd c1f7 6f3d 42d6 cabd 9b07 80bd
00000300: ac03 aebd 574d ccbd ffc5 7a3d 1f3a f9bc
00000310: 5fbf 01bd b5a5 b0bc 49c5 81bd 3b79 a8bc
00000320: 4c57 5e3d adef 5c3d 38ba ccbc 89c7 dcbb
00000330: 7133 03bd da3f 59bd 9d51 5f3d 251c f23c
00000340: f729 aabd 7ed9 b63d 7c30 8b3d a9b3 623c
00000350: 11d7 4e3d ef41 a53c aa54 ea3d 6d72 e13c
00000360: 7f41 30bd a8de a43c 4494 1a3d 5f84 023e
00000370: a376 f43d 8538 40bd b315 df3d c642 8a3c
00000380: abd4 e9bc e9fd acbd 8862 d1bc c2af 50bd
00000390: 2d08 ecbd 336e d93d a7d3 cf3d d9c0 a3bc
000003a0: f2ec 01be 39ee 3f3d 9fad 333d 86f7 efbd
000003b0: 6896 ccbd 6739 c3bd 0fc3 f3bd ceda 8fbd
000003c0: 4b5c aabd cc87 cdbd 024d a2bc a93a 023c
000003d0: da90 f4bd 18d8 83bd 7fb0 64bd c826 953d
000003e0: 221b f3bd 2c95 b13d 40bb b13d 1070 dc3d
000003f0: fa5f 9abd 5e1b 8f3d 1993 c93d f7ea ef3d
-0.08711547 0.03418602 -0.034904473 0.020101614 -0.07685211 0.0065679685 -0.006824836 -0.043979637
0.009536024 0.09159564 0.012882233 -0.098842934 -0.018303327 -0.08222794 -0.008956449 -0.10318958
0.05241266 -0.09966557 0.11895133 0.05455258 0.06934756 -0.009915656 0.068959944 0.08058639
0.070416264 0.053592246 -0.059323635 0.104563795 0.062199578 -0.062107544 0.058951654 -0.06291586
0.022143416 -0.035542767 -0.04541243 -0.018788975 -0.09799767 -0.100169726 -0.07881261 -0.08149017
0.08450534 0.08159091 0.12226325 -0.018113839 -0.010192491 -0.07250081 0.079687394 -0.080897555
-0.11073019 -0.060545012 -0.06554016 0.1140603 -0.06793316 0.056774978 -0.08778831 0.084060386
-0.01421518 0.10258564 0.05338493 0.07122777 0.00430877 0.0006965069 0.086762555 0.0801578
0.06420617 -0.061090674 0.07832598 -0.08703893 0.000806225 0.081289634 0.12109508 -0.11420296
-0.08462498 -0.08420667 -0.0066529433 0.1031407 -0.026922513 0.11465317 -0.017722696 0.085802004
0.097895086 0.09237544 -0.002647522 -0.045750692 -0.026238922 -0.0069880476 -0.038732342 -0.0436703
-0.094160356 0.06601524 0.03962204 0.07084117 -0.1227881 0.013059107 0.02518197 -0.031731855
-0.014264538 0.1008281 -0.03760932 0.016408281 -0.02670088 -0.10277169 -0.027102921 -0.052325148
-0.05014056 -0.058807153 -0.04240593 -0.044495102 -0.09078494 0.058855943 0.10569418 0.022399265
0.0788066 -0.056002654 -0.026231596 0.0005036616 0.058752738 -0.03580564 0.11030554 0.037057117
0.06618326 -0.09853901 -0.123727225 0.04964089 0.065434314 -0.007954586 0.098016165 -0.0858125
0.028535964 -0.0459719 -0.07772511 0.052778445 0.06603994 0.12207166 -0.120878555 0.076856814
-0.08008577 -0.042193264 -0.10209244 0.055283036 -0.10589969 -0.056413114 -0.00972627 -0.11103947
0.0872275 -0.09843898 0.10462768 0.10411761 0.056989975 0.024813144 0.11738812 0.039969914
0.08407391 0.0009767623 -0.088988654 0.08289852 -0.015284061 -0.04345295 -0.04115382 0.022924
-0.021422664 -0.0017306503 0.009579384 -0.011211366 -0.04444859 0.10197583 -0.03472335 -0.011065735
0.00082979293 0.08627248 -0.06403655 -0.10299658 -0.017035304 -0.015356315 0.0436843 -0.0948519
-0.013720499 0.009162985 0.022285316 -0.100797966 -0.03418687 0.022438584 0.106755055 -0.101894945
-0.02342995 0.0023412926 -0.07737849 -0.103748545 -0.042568557 0.058585886 -0.09904148 -0.06251451
-0.08496794 -0.09975689 0.06122398 -0.030423222 -0.031676646 -0.02156339 -0.06336457 -0.02056562
0.05428247 0.05393951 -0.02499114 -0.0067376536 -0.03203148 -0.05303941 0.054521192 0.029554436
-0.083087854 0.08928202 0.06796357 0.01383678 0.050498072 0.020173041 0.1144193 0.027520383
-0.043031212 0.020125702 0.037739053 0.12745808 0.11936691 -0.0469289 0.10892811 0.016877543
-0.02854379 -0.08446867 -0.025559679 -0.050948866 -0.11524997 0.10616722 0.10147791 -0.019989418
-0.12688044 0.046858046 0.04386675 -0.11717133 -0.09989625 -0.09532433 -0.11902439 -0.070241556
-0.08318385 -0.10035667 -0.01981211 0.007948556 -0.11941691 -0.06437701 -0.055832382 0.072827876
-0.118704095 0.086710304 0.08678293 0.10763562 -0.07537837 0.06987642 0.0984251 0.11714738

lstm.bias_ih_l1 f4 [256]
00000000: 4fb9 99bd 77f2 9d3a 2229 663d 17ae d0bd
00000010: 37d7 86bd 1c64 2ebd baa1 2a3d 5801 893d
00000020: 30e7 79bd c3c7 92bd 3dd7 72bd 6dd0 9b3d
00000030: 8c61 c4bc 7a9b 02bc b1fb 5fbd dcab cabd
00000040: 90f9 583c ca42 0e3e c1bc abbc 98cf df3d
00000050: c20b 2f3c f85b d0bd 96c6 9ebd 012c 3dbc
00000060: f27b d1bd 4c99 053d 8a86 0cbd 9409 703d
00000070: 53ee 35bc bdcb b1bd 3216 c3bd ead3 e5bd
00000080: 2e80 853d 57f9 02bd a0d4 ba3d a51c d7bd
00000090: bb2b 79bd b3a0 e73d 783e 8d3c 59e0 5d3d
000000a0: 45f8 6abd 99a2 06bd 953b 0abc b4d8 d9bd
000000b0: 6e8b 443d 5f68 91bd f343 c6bd 4d82 e8bc
000000c0: 6df0 fb3d 51c6 123e 3b93 adbd 89c4 a63d
000000d0: dd97 b23d 7ddb cebc b607 efbd b969 5abc
000000e0: a1c8 113d 34a2 a6bd baea cf3d 0ccd 6dbd
000000f0: 6174 3fbc 677e 1abb fcf1 fe3c 9a32 ecbd
00000100: 9620 ccbc 736d a9bc a52d c23d 0d3a 8ebd
00000110: 6b50 f53c ff44 e53d 8596 b7bd 1995 bfbd
00000120: 4f4d e13c 2d01 76bd c509 efbb 0897 5ebc
00000130: 879b d83d a49c c23d fde8 213d 392c cabd
00000140: bfa7 d2bd 5b59 84bd 6a87 85bd 30e2 0d3d
00000150: 8e65 aa3c 0e58 083e 20f9 b1bd c18c 0e3e
00000160: cf34 923d e857 e03d d160 6b3d 3f81 d9ba
00000170: 1bc8 9a3d a17e fdbc f3a5 ffbd 312c fcbd
00000180: 4465 a8bc 8271 0b3e 5d96 a8bd 74f7 d0bb
00000190: 5e9f 433d ca08 b3bb 6707 a33d 900c f3bd
000001a0: 078c 443c 0a6f 97bd 8bb6 c43c b058 043e
000001b0: 4b9a 783d 813c 753d 3fee 113d a96d b73b
000001c0: b22a 0f3e 9fa4 8e3c fd7c 7e3b ab53 bebd
000001d0: df4e a1bc 9c2d b13c 8a07 51bd 57ac b9bd
000001e0: 29ec 26bd cb3d acbc 9b90 76bc 6f43 fcbc
000001f0: 65a7 ba3d 4bc4 46bd 849e e5bd 5ec6 e83d
00000200: 5502 9c3d 8e5e b5bd 396f 10be 95ae ee3d
00000210: 8132 953c f1c6 273d c443 56bd c2f5 623d
00000220: 9929 d6bd 5993 c33d 0a55 f33c 2f30 b1bd
00000230: 6238 dc3d c8c4 81bd 9388 d9bd b070 963d
00000240: ce7e e0bc 94cd efbd 4001 943b 8ab3 d8bd
00000250: 8594 05be ec54 d53d c794 143d d711 d93d
00000260: 7b10 333d 669f 8ebc f9f5 b7bd 35f7 3bbb
00000270: 2b7f db3d 4fe1 a1bd a51c e0bd 0437 d4bd
00000280: 32bc a0bd 852b f43c 8681 6d3d b53d f03c
00000290: da88 9bbd a0e4 c1bd 8118 a3bd ae3e 5e3c
000002a0: b1c0 20bb 26d9 7cbd bf4e d8bd a8c5 4e3c
000002b0: f4c0 433d df98 c93d 8cfb 183d 416b d1bd
000002c0: 5fde 533d c0cf ddbd 7901 a53c 1d9e c53d
000002d0: 7ec4 553d 3f44 983d bdac bdbd 276b 593d
000002e0: 52b0 8f3d ed02 ea3d 0a1e 7bbd 6388 28bd
000002f0: 13a6 0ebd 7938 16bd 7021 0dbd 957b 853d
00000300: 064b a1bd d3a1 dfbd 1657 25bd 05ee 91bd
00000310: 0bd1 24bd eef1 153d 5510 8139 286f 4d3d
00000320: e428 b9bd 8739 b1bd 2289 b3bd cc99 ffbd
00000330: b943 ce3d 5354 183c 0e02 013e 6326 3ebd
00000340: 8eb9 953d 20d0 cf3d 6567 483d 0ab2 0cbe
00000350: fed5 e93d 395e cd3d 23c1 683d 2145 cfbd
00000360: de2b e33d 345b ef3d c1d9 c9bd 9b84 b53c
00000370: abe0 1c3c cbb1 ee3d b3f4 aebd 233a c0bd
00000380: e2dd 133d 6c16 3e3c b435 c2bb 0cd4 80bb
00000390: b084 bb3d 42a3 c93d 1f38 5f3d e4c6 b53d
000003a0: 6e3b acbd a0fe 033b 95ba 80bc c98e 57bc
000003b0: 690d 043e 9a5c 033e 5169 033d 608b f43d
000003c0: 0d6a e23d be5d 153c 241b c83d 65cd be3d
000003d0: 8b1c 963d ab71 843d 64e4 bd3c ffe0 80bc
000003e0: 66a8 b63d b4a0 0a3e de49 86bd 0425 e93d
000003f0: 2f45 f2bb e1d8 ff3d 0693 263c 57af 2ebd
-0.07506048 0.001205041 0.05619157 -0.10189455 -0.06584018 -0.04257594 0.04165814 0.066897094
-0.061011493 -0.07167008 -0.0592873 0.076081134 -0.023972295 -0.007971639 -0.05468339 -0.09896061
0.013243094 0.13892666 -0.020964028 0.10928267 0.010683956 -0.10173792 -0.07752721 -0.011546136
-0.10228719 0.0326169 -0.034307994 0.058602884 -0.011104184 -0.08681438 -0.09525718 -0.1122206
0.06518589 -0.03197607 0.09122586 -0.105035104 -0.06083272 0.11309948 0.017241701 0.054169033
-0.057365675 -0.03286991 -0.008437057 -0.10637036 0.047984533 -0.07099985 -0.09680929 -0.028382445
0.12301717 0.14333464 -0.084753476 0.08142955 0.08720372 -0.025251145 -0.116713926 -0.01333087
0.035591725 -0.081364065 0.101521924 -0.058056876 -0.011685462 -0.0023573877 0.031121247 -0.11533089
-0.024917882 -0.020682072 0.09481362 -0.06944666 0.029945573 0.111948006 -0.08964256 -0.0935461
0.027502684 -0.060059715 -0.007294866 -0.013585813 0.105765395 0.09502533 0.039528836 -0.09871716
-0.10285901 -0.06462356 -0.06519969 0.034639537 0.020800378 0.1331484 -0.08690095 0.13920881
0.07138979 0.10954267 0.05746538 -0.0016594304 0.07557698 -0.03094417 -0.12482824 -0.12313116
-0.0205561 0.13617519 -0.082318045 -0.006377155 0.047759406 -0.005463694 0.07960396 -0.118676305
0.011996276 -0.07394226 0.024012825 0.12924457 0.06069402 0.059872154 0.0356276 0.0055977893
0.1398113 0.017412482 0.0038831823 -0.09293302 -0.019690929 0.021628194 -0.05103258 -0.09066074
-0.040752564 -0.021025559 -0.015049125 -0.030793874 0.09113959 -0.048527043 -0.11211875 0.113659605
0.07617632 -0.088559255 -0.14104928 0.11654393 0.018212559 0.04096121 -0.05231072 0.055410154
-0.10457153 0.09549589 0.029703636 -0.086517684 0.10752942 -0.06336361 -0.106217526 0.07345712
-0.027404215 -0.11709133 0.0045167506 -0.10581119 -0.13044937 0.10416588 0.036274698 0.10599106
0.04371689 -0.017409991 -0.089824624 -0.0028681282 0.10717615 -0.07904302 -0.109429635 -0.10362056
-0.078483954 0.029805908 0.05798485 0.0293263 -0.07594462 -0.09467435 -0.07963658 0.013564749
-0.0024528916 -0.061730526 -0.105618946 0.012620367 0.047791436 0.09843611 0.03734927 -0.10225535
0.05172574 -0.10830641 0.020142304 0.09649298 0.052189343 0.07434892 -0.09261463 0.053080704
0.07016052 0.11426339 -0.061307944 -0.041145694 -0.03482635 -0.03667495 -0.034455717 0.06517712
-0.07875638 -0.109195374 -0.040366255 -0.07125477 -0.04023842 0.036607675 0.00024616966 0.050154835
-0.090410024 -0.086535506 -0.087663904 -0.12480506 0.10071511 0.009297448 0.1259844 -0.046423327
0.073107824 0.101471186 0.04892673 -0.13739792 0.11417769 0.10027737 0.056824815 -0.10120607
0.110923514 0.116873175 -0.098559864 0.022157958 0.009575049 0.11655005 -0.085427664 -0.09386089
0.036100276 0.0116020255 -0.005926812 -0.003931528 0.091561675 0.09845592 0.05449688 0.08875826
-0.08409773 0.0020140782 -0.01571397 -0.013156601 0.1289574 0.12828293 0.03208286 0.11940646
0.11055384 0.009116588 0.09770802 0.0931652 0.07329663 0.06466993 0.023180194 -0.015732286
0.08918838 0.13537866 -0.06557058 0.11384013 -0.0073935012 0.12492538 0.010166889 -0.042647686
