cluster-trace-microservices-v2022/workload_prediction/outputs/models/best_model.pt (torch, 10869 bytes, 6 tensors)

linear_seasonal.weight f4 [1, 12]
0	0xbf0226ca	-0.5084044
1	0xbcac900c	-0.02106478
2	0xbdaeeabe	-0.08540867
3	0xbe7eaf10	-0.24871469
4	0x3db4157d	0.08793161
5	0x3dae63a0	0.08515096
6	0xbe470c38	-0.19438255
7	0xbe1512b5	-0.14557917
8	0xbc0bf96f	-0.008543356
9	0x3c16adf9	0.009196752
10	0x3e6d1f27	0.23156415
11	0x3da1a4e0	0.078927755

linear_trend.weight f4 [1, 12]
0	0x3d794a6a	0.060861982
1	0x3d33b26e	0.043871336
2	0x3d186fdf	0.037216064
3	0xbd0c3aeb	-0.034235876
4	0x3e723bd0	0.23655629
5	0x3e2a0169	0.166021
6	0xbdccd3ad	-0.100013115
7	0x3d109a9e	0.035303704
8	0x3df31987	0.11870103
9	0x3e74ae5b	0.23894636
10	0x3e8891b5	0.26673666
11	0xbd9fa120	-0.07794404

exp_avg f4 [1, 12]
0	0x3a862060	0.0010233037
1	0x3a2ea5d9	0.00066622865
2	0xb932ba77	-0.00017044866
3	0xb95c4d98	-0.00021009741
4	0x3953567f	0.0002015475
5	0x39ab880d	0.00032717027
6	0xb958c4de	-0.00020672704
7	0xb6bf22a9	-5.6962785e-06
8	0x3a00cc6d	0.00049132743
9	0x39dee298	0.00042511965
10	0x38d5abe0	0.00010188646
11	0xbaa27186	-0.0012393452

exp_avg_sq f4 [1, 12]
0	0x3699104f	4.561654e-06
1	0x368434a1	3.9400334e-06
2	0x3620a71f	2.3939135e-06
3	0x35ff905c	1.9040995e-06
4	0x35ffde9a	1.9063766e-06
5	0x35dd168e	1.6472347e-06
6	0x35a8534a	1.2541216e-06
7	0x35c3e957	1.4596543e-06
8	0x3629f723	2.5326815e-06
9	0x36199a36	2.288854e-06
10	0x36516b05	3.120572e-06
11	0x36d3e936	6.3154394e-06

exp_avg f4 [1, 12]
0	0xbb162d7d	-0.0022915297
1	0xbb20c4fb	-0.0024531472
2	0xbb2b5c7c	-0.0026147654
3	0xbb35f3f8	-0.0027763825
4	0xbb408b76	-0.002938
5	0xbb4b22f5	-0.0030996178
6	0xbb55ba75	-0.0032612358
7	0xbb6051f3	-0.0034228533
8	0xbb6ae972	-0.003584471
9	0xbb7580f1	-0.0037460888
10	0xbb800c39	-0.003907707
11	0xbb8557f6	-0.0040693237

exp_avg_sq f4 [1, 12]
0	0x3b09898f	0.0020986532
1	0x3b0a36d2	0.0021089804
2	0x3b0ae779	0.0021195097
3	0x3b0b9bca	0.0021302574
4	0x3b0c53b7	0.0021412203
5	0x3b0d0f29	0.0021523929
6	0x3b0dce23	0.002163776
7	0x3b0e90ca	0.0021753781
8	0x3b0f56de	0.0021871845
9	0x3b1020ad	0.0021992133
10	0x3b10edf0	0.0022114478
11	0x3b11bee5	0.0022239026
